{
  "class_name": "Functional",
  "config": {
    "name": "model",
    "layers": [
      {
        "class_name": "InputLayer",
        "config": {
          "batch_input_shape": [null, 416, 416, 3],
          "dtype": "float32",
          "sparse": false,
          "ragged": false,
          "name": "input_1"
        },
        "name": "input_1",
        "inbound_nodes": []
      },
      {
        "class_name": "TFOpLambda",
        "config": {
          "name": "tf.math.truediv",
          "trainable": true,
          "dtype": "float32",
          "function": "math.truediv"
        },
        "name": "tf.math.truediv",
        "inbound_nodes": [["input_1", 0, 0, { "y": 255.0, "name": null }]]
      },
      {
        "class_name": "Conv2D",
        "config": {
          "name": "conv_0",
          "trainable": true,
          "dtype": "float32",
          "filters": 32,
          "kernel_size": [3, 3],
          "strides": [1, 1],
          "padding": "same",
          "data_format": "channels_last",
          "dilation_rate": [1, 1],
          "groups": 1,
          "activation": "linear",
          "use_bias": false,
          "kernel_initializer": {
            "class_name": "GlorotUniform",
            "config": { "seed": null }
          },
          "bias_initializer": { "class_name": "Zeros", "config": {} },
          "kernel_regularizer": null,
          "bias_regularizer": null,
          "activity_regularizer": null,
          "kernel_constraint": null,
          "bias_constraint": null
        },
        "name": "conv_0",
        "inbound_nodes": [[["tf.math.truediv", 0, 0, {}]]]
      },
      {
        "class_name": "BatchNormalization",
        "config": {
          "name": "bnorm_0",
          "trainable": true,
          "dtype": "float32",
          "axis": [3],
          "momentum": 0.99,
          "epsilon": 0.001,
          "center": true,
          "scale": true,
          "beta_initializer": { "class_name": "Zeros", "config": {} },
          "gamma_initializer": { "class_name": "Ones", "config": {} },
          "moving_mean_initializer": { "class_name": "Zeros", "config": {} },
          "moving_variance_initializer": { "class_name": "Ones", "config": {} },
          "beta_regularizer": null,
          "gamma_regularizer": null,
          "beta_constraint": null,
          "gamma_constraint": null
        },
        "name": "bnorm_0",
        "inbound_nodes": [[["conv_0", 0, 0, {}]]]
      },
      {
        "class_name": "LeakyReLU",
        "config": {
          "name": "leaky_0",
          "trainable": true,
          "dtype": "float32",
          "alpha": 0.10000000149011612
        },
        "name": "leaky_0",
        "inbound_nodes": [[["bnorm_0", 0, 0, {}]]]
      },
      {
        "class_name": "ZeroPadding2D",
        "config": {
          "name": "zero_padding2d",
          "trainable": true,
          "dtype": "float32",
          "padding": [
            [1, 0],
            [1, 0]
          ],
          "data_format": "channels_last"
        },
        "name": "zero_padding2d",
        "inbound_nodes": [[["leaky_0", 0, 0, {}]]]
      },
      {
        "class_name": "Conv2D",
        "config": {
          "name": "conv_1",
          "trainable": true,
          "dtype": "float32",
          "filters": 64,
          "kernel_size": [3, 3],
          "strides": [2, 2],
          "padding": "valid",
          "data_format": "channels_last",
          "dilation_rate": [1, 1],
          "groups": 1,
          "activation": "linear",
          "use_bias": false,
          "kernel_initializer": {
            "class_name": "GlorotUniform",
            "config": { "seed": null }
          },
          "bias_initializer": { "class_name": "Zeros", "config": {} },
          "kernel_regularizer": null,
          "bias_regularizer": null,
          "activity_regularizer": null,
          "kernel_constraint": null,
          "bias_constraint": null
        },
        "name": "conv_1",
        "inbound_nodes": [[["zero_padding2d", 0, 0, {}]]]
      },
      {
        "class_name": "BatchNormalization",
        "config": {
          "name": "bnorm_1",
          "trainable": true,
          "dtype": "float32",
          "axis": [3],
          "momentum": 0.99,
          "epsilon": 0.001,
          "center": true,
          "scale": true,
          "beta_initializer": { "class_name": "Zeros", "config": {} },
          "gamma_initializer": { "class_name": "Ones", "config": {} },
          "moving_mean_initializer": { "class_name": "Zeros", "config": {} },
          "moving_variance_initializer": { "class_name": "Ones", "config": {} },
          "beta_regularizer": null,
          "gamma_regularizer": null,
          "beta_constraint": null,
          "gamma_constraint": null
        },
        "name": "bnorm_1",
        "inbound_nodes": [[["conv_1", 0, 0, {}]]]
      },
      {
        "class_name": "LeakyReLU",
        "config": {
          "name": "leaky_1",
          "trainable": true,
          "dtype": "float32",
          "alpha": 0.10000000149011612
        },
        "name": "leaky_1",
        "inbound_nodes": [[["bnorm_1", 0, 0, {}]]]
      },
      {
        "class_name": "Conv2D",
        "config": {
          "name": "conv_2",
          "trainable": true,
          "dtype": "float32",
          "filters": 32,
          "kernel_size": [1, 1],
          "strides": [1, 1],
          "padding": "same",
          "data_format": "channels_last",
          "dilation_rate": [1, 1],
          "groups": 1,
          "activation": "linear",
          "use_bias": false,
          "kernel_initializer": {
            "class_name": "GlorotUniform",
            "config": { "seed": null }
          },
          "bias_initializer": { "class_name": "Zeros", "config": {} },
          "kernel_regularizer": null,
          "bias_regularizer": null,
          "activity_regularizer": null,
          "kernel_constraint": null,
          "bias_constraint": null
        },
        "name": "conv_2",
        "inbound_nodes": [[["leaky_1", 0, 0, {}]]]
      },
      {
        "class_name": "BatchNormalization",
        "config": {
          "name": "bnorm_2",
          "trainable": true,
          "dtype": "float32",
          "axis": [3],
          "momentum": 0.99,
          "epsilon": 0.001,
          "center": true,
          "scale": true,
          "beta_initializer": { "class_name": "Zeros", "config": {} },
          "gamma_initializer": { "class_name": "Ones", "config": {} },
          "moving_mean_initializer": { "class_name": "Zeros", "config": {} },
          "moving_variance_initializer": { "class_name": "Ones", "config": {} },
          "beta_regularizer": null,
          "gamma_regularizer": null,
          "beta_constraint": null,
          "gamma_constraint": null
        },
        "name": "bnorm_2",
        "inbound_nodes": [[["conv_2", 0, 0, {}]]]
      },
      {
        "class_name": "LeakyReLU",
        "config": {
          "name": "leaky_2",
          "trainable": true,
          "dtype": "float32",
          "alpha": 0.10000000149011612
        },
        "name": "leaky_2",
        "inbound_nodes": [[["bnorm_2", 0, 0, {}]]]
      },
      {
        "class_name": "Conv2D",
        "config": {
          "name": "conv_3",
          "trainable": true,
          "dtype": "float32",
          "filters": 64,
          "kernel_size": [3, 3],
          "strides": [1, 1],
          "padding": "same",
          "data_format": "channels_last",
          "dilation_rate": [1, 1],
          "groups": 1,
          "activation": "linear",
          "use_bias": false,
          "kernel_initializer": {
            "class_name": "GlorotUniform",
            "config": { "seed": null }
          },
          "bias_initializer": { "class_name": "Zeros", "config": {} },
          "kernel_regularizer": null,
          "bias_regularizer": null,
          "activity_regularizer": null,
          "kernel_constraint": null,
          "bias_constraint": null
        },
        "name": "conv_3",
        "inbound_nodes": [[["leaky_2", 0, 0, {}]]]
      },
      {
        "class_name": "BatchNormalization",
        "config": {
          "name": "bnorm_3",
          "trainable": true,
          "dtype": "float32",
          "axis": [3],
          "momentum": 0.99,
          "epsilon": 0.001,
          "center": true,
          "scale": true,
          "beta_initializer": { "class_name": "Zeros", "config": {} },
          "gamma_initializer": { "class_name": "Ones", "config": {} },
          "moving_mean_initializer": { "class_name": "Zeros", "config": {} },
          "moving_variance_initializer": { "class_name": "Ones", "config": {} },
          "beta_regularizer": null,
          "gamma_regularizer": null,
          "beta_constraint": null,
          "gamma_constraint": null
        },
        "name": "bnorm_3",
        "inbound_nodes": [[["conv_3", 0, 0, {}]]]
      },
      {
        "class_name": "LeakyReLU",
        "config": {
          "name": "leaky_3",
          "trainable": true,
          "dtype": "float32",
          "alpha": 0.10000000149011612
        },
        "name": "leaky_3",
        "inbound_nodes": [[["bnorm_3", 0, 0, {}]]]
      },
      {
        "class_name": "TFOpLambda",
        "config": {
          "name": "tf.__operators__.add",
          "trainable": true,
          "dtype": "float32",
          "function": "__operators__.add"
        },
        "name": "tf.__operators__.add",
        "inbound_nodes": [
          ["leaky_3", 0, 0, { "y": ["leaky_1", 0, 0], "name": null }]
        ]
      },
      {
        "class_name": "ZeroPadding2D",
        "config": {
          "name": "zero_padding2d_1",
          "trainable": true,
          "dtype": "float32",
          "padding": [
            [1, 0],
            [1, 0]
          ],
          "data_format": "channels_last"
        },
        "name": "zero_padding2d_1",
        "inbound_nodes": [[["tf.__operators__.add", 0, 0, {}]]]
      },
      {
        "class_name": "Conv2D",
        "config": {
          "name": "conv_5",
          "trainable": true,
          "dtype": "float32",
          "filters": 128,
          "kernel_size": [3, 3],
          "strides": [2, 2],
          "padding": "valid",
          "data_format": "channels_last",
          "dilation_rate": [1, 1],
          "groups": 1,
          "activation": "linear",
          "use_bias": false,
          "kernel_initializer": {
            "class_name": "GlorotUniform",
            "config": { "seed": null }
          },
          "bias_initializer": { "class_name": "Zeros", "config": {} },
          "kernel_regularizer": null,
          "bias_regularizer": null,
          "activity_regularizer": null,
          "kernel_constraint": null,
          "bias_constraint": null
        },
        "name": "conv_5",
        "inbound_nodes": [[["zero_padding2d_1", 0, 0, {}]]]
      },
      {
        "class_name": "BatchNormalization",
        "config": {
          "name": "bnorm_5",
          "trainable": true,
          "dtype": "float32",
          "axis": [3],
          "momentum": 0.99,
          "epsilon": 0.001,
          "center": true,
          "scale": true,
          "beta_initializer": { "class_name": "Zeros", "config": {} },
          "gamma_initializer": { "class_name": "Ones", "config": {} },
          "moving_mean_initializer": { "class_name": "Zeros", "config": {} },
          "moving_variance_initializer": { "class_name": "Ones", "config": {} },
          "beta_regularizer": null,
          "gamma_regularizer": null,
          "beta_constraint": null,
          "gamma_constraint": null
        },
        "name": "bnorm_5",
        "inbound_nodes": [[["conv_5", 0, 0, {}]]]
      },
      {
        "class_name": "LeakyReLU",
        "config": {
          "name": "leaky_5",
          "trainable": true,
          "dtype": "float32",
          "alpha": 0.10000000149011612
        },
        "name": "leaky_5",
        "inbound_nodes": [[["bnorm_5", 0, 0, {}]]]
      },
      {
        "class_name": "Conv2D",
        "config": {
          "name": "conv_6",
          "trainable": true,
          "dtype": "float32",
          "filters": 64,
          "kernel_size": [1, 1],
          "strides": [1, 1],
          "padding": "same",
          "data_format": "channels_last",
          "dilation_rate": [1, 1],
          "groups": 1,
          "activation": "linear",
          "use_bias": false,
          "kernel_initializer": {
            "class_name": "GlorotUniform",
            "config": { "seed": null }
          },
          "bias_initializer": { "class_name": "Zeros", "config": {} },
          "kernel_regularizer": null,
          "bias_regularizer": null,
          "activity_regularizer": null,
          "kernel_constraint": null,
          "bias_constraint": null
        },
        "name": "conv_6",
        "inbound_nodes": [[["leaky_5", 0, 0, {}]]]
      },
      {
        "class_name": "BatchNormalization",
        "config": {
          "name": "bnorm_6",
          "trainable": true,
          "dtype": "float32",
          "axis": [3],
          "momentum": 0.99,
          "epsilon": 0.001,
          "center": true,
          "scale": true,
          "beta_initializer": { "class_name": "Zeros", "config": {} },
          "gamma_initializer": { "class_name": "Ones", "config": {} },
          "moving_mean_initializer": { "class_name": "Zeros", "config": {} },
          "moving_variance_initializer": { "class_name": "Ones", "config": {} },
          "beta_regularizer": null,
          "gamma_regularizer": null,
          "beta_constraint": null,
          "gamma_constraint": null
        },
        "name": "bnorm_6",
        "inbound_nodes": [[["conv_6", 0, 0, {}]]]
      },
      {
        "class_name": "LeakyReLU",
        "config": {
          "name": "leaky_6",
          "trainable": true,
          "dtype": "float32",
          "alpha": 0.10000000149011612
        },
        "name": "leaky_6",
        "inbound_nodes": [[["bnorm_6", 0, 0, {}]]]
      },
      {
        "class_name": "Conv2D",
        "config": {
          "name": "conv_7",
          "trainable": true,
          "dtype": "float32",
          "filters": 128,
          "kernel_size": [3, 3],
          "strides": [1, 1],
          "padding": "same",
          "data_format": "channels_last",
          "dilation_rate": [1, 1],
          "groups": 1,
          "activation": "linear",
          "use_bias": false,
          "kernel_initializer": {
            "class_name": "GlorotUniform",
            "config": { "seed": null }
          },
          "bias_initializer": { "class_name": "Zeros", "config": {} },
          "kernel_regularizer": null,
          "bias_regularizer": null,
          "activity_regularizer": null,
          "kernel_constraint": null,
          "bias_constraint": null
        },
        "name": "conv_7",
        "inbound_nodes": [[["leaky_6", 0, 0, {}]]]
      },
      {
        "class_name": "BatchNormalization",
        "config": {
          "name": "bnorm_7",
          "trainable": true,
          "dtype": "float32",
          "axis": [3],
          "momentum": 0.99,
          "epsilon": 0.001,
          "center": true,
          "scale": true,
          "beta_initializer": { "class_name": "Zeros", "config": {} },
          "gamma_initializer": { "class_name": "Ones", "config": {} },
          "moving_mean_initializer": { "class_name": "Zeros", "config": {} },
          "moving_variance_initializer": { "class_name": "Ones", "config": {} },
          "beta_regularizer": null,
          "gamma_regularizer": null,
          "beta_constraint": null,
          "gamma_constraint": null
        },
        "name": "bnorm_7",
        "inbound_nodes": [[["conv_7", 0, 0, {}]]]
      },
      {
        "class_name": "LeakyReLU",
        "config": {
          "name": "leaky_7",
          "trainable": true,
          "dtype": "float32",
          "alpha": 0.10000000149011612
        },
        "name": "leaky_7",
        "inbound_nodes": [[["bnorm_7", 0, 0, {}]]]
      },
      {
        "class_name": "TFOpLambda",
        "config": {
          "name": "tf.__operators__.add_1",
          "trainable": true,
          "dtype": "float32",
          "function": "__operators__.add"
        },
        "name": "tf.__operators__.add_1",
        "inbound_nodes": [
          ["leaky_7", 0, 0, { "y": ["leaky_5", 0, 0], "name": null }]
        ]
      },
      {
        "class_name": "Conv2D",
        "config": {
          "name": "conv_9",
          "trainable": true,
          "dtype": "float32",
          "filters": 64,
          "kernel_size": [1, 1],
          "strides": [1, 1],
          "padding": "same",
          "data_format": "channels_last",
          "dilation_rate": [1, 1],
          "groups": 1,
          "activation": "linear",
          "use_bias": false,
          "kernel_initializer": {
            "class_name": "GlorotUniform",
            "config": { "seed": null }
          },
          "bias_initializer": { "class_name": "Zeros", "config": {} },
          "kernel_regularizer": null,
          "bias_regularizer": null,
          "activity_regularizer": null,
          "kernel_constraint": null,
          "bias_constraint": null
        },
        "name": "conv_9",
        "inbound_nodes": [[["tf.__operators__.add_1", 0, 0, {}]]]
      },
      {
        "class_name": "BatchNormalization",
        "config": {
          "name": "bnorm_9",
          "trainable": true,
          "dtype": "float32",
          "axis": [3],
          "momentum": 0.99,
          "epsilon": 0.001,
          "center": true,
          "scale": true,
          "beta_initializer": { "class_name": "Zeros", "config": {} },
          "gamma_initializer": { "class_name": "Ones", "config": {} },
          "moving_mean_initializer": { "class_name": "Zeros", "config": {} },
          "moving_variance_initializer": { "class_name": "Ones", "config": {} },
          "beta_regularizer": null,
          "gamma_regularizer": null,
          "beta_constraint": null,
          "gamma_constraint": null
        },
        "name": "bnorm_9",
        "inbound_nodes": [[["conv_9", 0, 0, {}]]]
      },
      {
        "class_name": "LeakyReLU",
        "config": {
          "name": "leaky_9",
          "trainable": true,
          "dtype": "float32",
          "alpha": 0.10000000149011612
        },
        "name": "leaky_9",
        "inbound_nodes": [[["bnorm_9", 0, 0, {}]]]
      },
      {
        "class_name": "Conv2D",
        "config": {
          "name": "conv_10",
          "trainable": true,
          "dtype": "float32",
          "filters": 128,
          "kernel_size": [3, 3],
          "strides": [1, 1],
          "padding": "same",
          "data_format": "channels_last",
          "dilation_rate": [1, 1],
          "groups": 1,
          "activation": "linear",
          "use_bias": false,
          "kernel_initializer": {
            "class_name": "GlorotUniform",
            "config": { "seed": null }
          },
          "bias_initializer": { "class_name": "Zeros", "config": {} },
          "kernel_regularizer": null,
          "bias_regularizer": null,
          "activity_regularizer": null,
          "kernel_constraint": null,
          "bias_constraint": null
        },
        "name": "conv_10",
        "inbound_nodes": [[["leaky_9", 0, 0, {}]]]
      },
      {
        "class_name": "BatchNormalization",
        "config": {
          "name": "bnorm_10",
          "trainable": true,
          "dtype": "float32",
          "axis": [3],
          "momentum": 0.99,
          "epsilon": 0.001,
          "center": true,
          "scale": true,
          "beta_initializer": { "class_name": "Zeros", "config": {} },
          "gamma_initializer": { "class_name": "Ones", "config": {} },
          "moving_mean_initializer": { "class_name": "Zeros", "config": {} },
          "moving_variance_initializer": { "class_name": "Ones", "config": {} },
          "beta_regularizer": null,
          "gamma_regularizer": null,
          "beta_constraint": null,
          "gamma_constraint": null
        },
        "name": "bnorm_10",
        "inbound_nodes": [[["conv_10", 0, 0, {}]]]
      },
      {
        "class_name": "LeakyReLU",
        "config": {
          "name": "leaky_10",
          "trainable": true,
          "dtype": "float32",
          "alpha": 0.10000000149011612
        },
        "name": "leaky_10",
        "inbound_nodes": [[["bnorm_10", 0, 0, {}]]]
      },
      {
        "class_name": "TFOpLambda",
        "config": {
          "name": "tf.__operators__.add_2",
          "trainable": true,
          "dtype": "float32",
          "function": "__operators__.add"
        },
        "name": "tf.__operators__.add_2",
        "inbound_nodes": [
          [
            "leaky_10",
            0,
            0,
            { "y": ["tf.__operators__.add_1", 0, 0], "name": null }
          ]
        ]
      },
      {
        "class_name": "ZeroPadding2D",
        "config": {
          "name": "zero_padding2d_2",
          "trainable": true,
          "dtype": "float32",
          "padding": [
            [1, 0],
            [1, 0]
          ],
          "data_format": "channels_last"
        },
        "name": "zero_padding2d_2",
        "inbound_nodes": [[["tf.__operators__.add_2", 0, 0, {}]]]
      },
      {
        "class_name": "Conv2D",
        "config": {
          "name": "conv_12",
          "trainable": true,
          "dtype": "float32",
          "filters": 256,
          "kernel_size": [3, 3],
          "strides": [2, 2],
          "padding": "valid",
          "data_format": "channels_last",
          "dilation_rate": [1, 1],
          "groups": 1,
          "activation": "linear",
          "use_bias": false,
          "kernel_initializer": {
            "class_name": "GlorotUniform",
            "config": { "seed": null }
          },
          "bias_initializer": { "class_name": "Zeros", "config": {} },
          "kernel_regularizer": null,
          "bias_regularizer": null,
          "activity_regularizer": null,
          "kernel_constraint": null,
          "bias_constraint": null
        },
        "name": "conv_12",
        "inbound_nodes": [[["zero_padding2d_2", 0, 0, {}]]]
      },
      {
        "class_name": "BatchNormalization",
        "config": {
          "name": "bnorm_12",
          "trainable": true,
          "dtype": "float32",
          "axis": [3],
          "momentum": 0.99,
          "epsilon": 0.001,
          "center": true,
          "scale": true,
          "beta_initializer": { "class_name": "Zeros", "config": {} },
          "gamma_initializer": { "class_name": "Ones", "config": {} },
          "moving_mean_initializer": { "class_name": "Zeros", "config": {} },
          "moving_variance_initializer": { "class_name": "Ones", "config": {} },
          "beta_regularizer": null,
          "gamma_regularizer": null,
          "beta_constraint": null,
          "gamma_constraint": null
        },
        "name": "bnorm_12",
        "inbound_nodes": [[["conv_12", 0, 0, {}]]]
      },
      {
        "class_name": "LeakyReLU",
        "config": {
          "name": "leaky_12",
          "trainable": true,
          "dtype": "float32",
          "alpha": 0.10000000149011612
        },
        "name": "leaky_12",
        "inbound_nodes": [[["bnorm_12", 0, 0, {}]]]
      },
      {
        "class_name": "Conv2D",
        "config": {
          "name": "conv_13",
          "trainable": true,
          "dtype": "float32",
          "filters": 128,
          "kernel_size": [1, 1],
          "strides": [1, 1],
          "padding": "same",
          "data_format": "channels_last",
          "dilation_rate": [1, 1],
          "groups": 1,
          "activation": "linear",
          "use_bias": false,
          "kernel_initializer": {
            "class_name": "GlorotUniform",
            "config": { "seed": null }
          },
          "bias_initializer": { "class_name": "Zeros", "config": {} },
          "kernel_regularizer": null,
          "bias_regularizer": null,
          "activity_regularizer": null,
          "kernel_constraint": null,
          "bias_constraint": null
        },
        "name": "conv_13",
        "inbound_nodes": [[["leaky_12", 0, 0, {}]]]
      },
      {
        "class_name": "BatchNormalization",
        "config": {
          "name": "bnorm_13",
          "trainable": true,
          "dtype": "float32",
          "axis": [3],
          "momentum": 0.99,
          "epsilon": 0.001,
          "center": true,
          "scale": true,
          "beta_initializer": { "class_name": "Zeros", "config": {} },
          "gamma_initializer": { "class_name": "Ones", "config": {} },
          "moving_mean_initializer": { "class_name": "Zeros", "config": {} },
          "moving_variance_initializer": { "class_name": "Ones", "config": {} },
          "beta_regularizer": null,
          "gamma_regularizer": null,
          "beta_constraint": null,
          "gamma_constraint": null
        },
        "name": "bnorm_13",
        "inbound_nodes": [[["conv_13", 0, 0, {}]]]
      },
      {
        "class_name": "LeakyReLU",
        "config": {
          "name": "leaky_13",
          "trainable": true,
          "dtype": "float32",
          "alpha": 0.10000000149011612
        },
        "name": "leaky_13",
        "inbound_nodes": [[["bnorm_13", 0, 0, {}]]]
      },
      {
        "class_name": "Conv2D",
        "config": {
          "name": "conv_14",
          "trainable": true,
          "dtype": "float32",
          "filters": 256,
          "kernel_size": [3, 3],
          "strides": [1, 1],
          "padding": "same",
          "data_format": "channels_last",
          "dilation_rate": [1, 1],
          "groups": 1,
          "activation": "linear",
          "use_bias": false,
          "kernel_initializer": {
            "class_name": "GlorotUniform",
            "config": { "seed": null }
          },
          "bias_initializer": { "class_name": "Zeros", "config": {} },
          "kernel_regularizer": null,
          "bias_regularizer": null,
          "activity_regularizer": null,
          "kernel_constraint": null,
          "bias_constraint": null
        },
        "name": "conv_14",
        "inbound_nodes": [[["leaky_13", 0, 0, {}]]]
      },
      {
        "class_name": "BatchNormalization",
        "config": {
          "name": "bnorm_14",
          "trainable": true,
          "dtype": "float32",
          "axis": [3],
          "momentum": 0.99,
          "epsilon": 0.001,
          "center": true,
          "scale": true,
          "beta_initializer": { "class_name": "Zeros", "config": {} },
          "gamma_initializer": { "class_name": "Ones", "config": {} },
          "moving_mean_initializer": { "class_name": "Zeros", "config": {} },
          "moving_variance_initializer": { "class_name": "Ones", "config": {} },
          "beta_regularizer": null,
          "gamma_regularizer": null,
          "beta_constraint": null,
          "gamma_constraint": null
        },
        "name": "bnorm_14",
        "inbound_nodes": [[["conv_14", 0, 0, {}]]]
      },
      {
        "class_name": "LeakyReLU",
        "config": {
          "name": "leaky_14",
          "trainable": true,
          "dtype": "float32",
          "alpha": 0.10000000149011612
        },
        "name": "leaky_14",
        "inbound_nodes": [[["bnorm_14", 0, 0, {}]]]
      },
      {
        "class_name": "TFOpLambda",
        "config": {
          "name": "tf.__operators__.add_3",
          "trainable": true,
          "dtype": "float32",
          "function": "__operators__.add"
        },
        "name": "tf.__operators__.add_3",
        "inbound_nodes": [
          ["leaky_14", 0, 0, { "y": ["leaky_12", 0, 0], "name": null }]
        ]
      },
      {
        "class_name": "Conv2D",
        "config": {
          "name": "conv_16",
          "trainable": true,
          "dtype": "float32",
          "filters": 128,
          "kernel_size": [1, 1],
          "strides": [1, 1],
          "padding": "same",
          "data_format": "channels_last",
          "dilation_rate": [1, 1],
          "groups": 1,
          "activation": "linear",
          "use_bias": false,
          "kernel_initializer": {
            "class_name": "GlorotUniform",
            "config": { "seed": null }
          },
          "bias_initializer": { "class_name": "Zeros", "config": {} },
          "kernel_regularizer": null,
          "bias_regularizer": null,
          "activity_regularizer": null,
          "kernel_constraint": null,
          "bias_constraint": null
        },
        "name": "conv_16",
        "inbound_nodes": [[["tf.__operators__.add_3", 0, 0, {}]]]
      },
      {
        "class_name": "BatchNormalization",
        "config": {
          "name": "bnorm_16",
          "trainable": true,
          "dtype": "float32",
          "axis": [3],
          "momentum": 0.99,
          "epsilon": 0.001,
          "center": true,
          "scale": true,
          "beta_initializer": { "class_name": "Zeros", "config": {} },
          "gamma_initializer": { "class_name": "Ones", "config": {} },
          "moving_mean_initializer": { "class_name": "Zeros", "config": {} },
          "moving_variance_initializer": { "class_name": "Ones", "config": {} },
          "beta_regularizer": null,
          "gamma_regularizer": null,
          "beta_constraint": null,
          "gamma_constraint": null
        },
        "name": "bnorm_16",
        "inbound_nodes": [[["conv_16", 0, 0, {}]]]
      },
      {
        "class_name": "LeakyReLU",
        "config": {
          "name": "leaky_16",
          "trainable": true,
          "dtype": "float32",
          "alpha": 0.10000000149011612
        },
        "name": "leaky_16",
        "inbound_nodes": [[["bnorm_16", 0, 0, {}]]]
      },
      {
        "class_name": "Conv2D",
        "config": {
          "name": "conv_17",
          "trainable": true,
          "dtype": "float32",
          "filters": 256,
          "kernel_size": [3, 3],
          "strides": [1, 1],
          "padding": "same",
          "data_format": "channels_last",
          "dilation_rate": [1, 1],
          "groups": 1,
          "activation": "linear",
          "use_bias": false,
          "kernel_initializer": {
            "class_name": "GlorotUniform",
            "config": { "seed": null }
          },
          "bias_initializer": { "class_name": "Zeros", "config": {} },
          "kernel_regularizer": null,
          "bias_regularizer": null,
          "activity_regularizer": null,
          "kernel_constraint": null,
          "bias_constraint": null
        },
        "name": "conv_17",
        "inbound_nodes": [[["leaky_16", 0, 0, {}]]]
      },
      {
        "class_name": "BatchNormalization",
        "config": {
          "name": "bnorm_17",
          "trainable": true,
          "dtype": "float32",
          "axis": [3],
          "momentum": 0.99,
          "epsilon": 0.001,
          "center": true,
          "scale": true,
          "beta_initializer": { "class_name": "Zeros", "config": {} },
          "gamma_initializer": { "class_name": "Ones", "config": {} },
          "moving_mean_initializer": { "class_name": "Zeros", "config": {} },
          "moving_variance_initializer": { "class_name": "Ones", "config": {} },
          "beta_regularizer": null,
          "gamma_regularizer": null,
          "beta_constraint": null,
          "gamma_constraint": null
        },
        "name": "bnorm_17",
        "inbound_nodes": [[["conv_17", 0, 0, {}]]]
      },
      {
        "class_name": "LeakyReLU",
        "config": {
          "name": "leaky_17",
          "trainable": true,
          "dtype": "float32",
          "alpha": 0.10000000149011612
        },
        "name": "leaky_17",
        "inbound_nodes": [[["bnorm_17", 0, 0, {}]]]
      },
      {
        "class_name": "TFOpLambda",
        "config": {
          "name": "tf.__operators__.add_4",
          "trainable": true,
          "dtype": "float32",
          "function": "__operators__.add"
        },
        "name": "tf.__operators__.add_4",
        "inbound_nodes": [
          [
            "leaky_17",
            0,
            0,
            { "y": ["tf.__operators__.add_3", 0, 0], "name": null }
          ]
        ]
      },
      {
        "class_name": "Conv2D",
        "config": {
          "name": "conv_19",
          "trainable": true,
          "dtype": "float32",
          "filters": 128,
          "kernel_size": [1, 1],
          "strides": [1, 1],
          "padding": "same",
          "data_format": "channels_last",
          "dilation_rate": [1, 1],
          "groups": 1,
          "activation": "linear",
          "use_bias": false,
          "kernel_initializer": {
            "class_name": "GlorotUniform",
            "config": { "seed": null }
          },
          "bias_initializer": { "class_name": "Zeros", "config": {} },
          "kernel_regularizer": null,
          "bias_regularizer": null,
          "activity_regularizer": null,
          "kernel_constraint": null,
          "bias_constraint": null
        },
        "name": "conv_19",
        "inbound_nodes": [[["tf.__operators__.add_4", 0, 0, {}]]]
      },
      {
        "class_name": "BatchNormalization",
        "config": {
          "name": "bnorm_19",
          "trainable": true,
          "dtype": "float32",
          "axis": [3],
          "momentum": 0.99,
          "epsilon": 0.001,
          "center": true,
          "scale": true,
          "beta_initializer": { "class_name": "Zeros", "config": {} },
          "gamma_initializer": { "class_name": "Ones", "config": {} },
          "moving_mean_initializer": { "class_name": "Zeros", "config": {} },
          "moving_variance_initializer": { "class_name": "Ones", "config": {} },
          "beta_regularizer": null,
          "gamma_regularizer": null,
          "beta_constraint": null,
          "gamma_constraint": null
        },
        "name": "bnorm_19",
        "inbound_nodes": [[["conv_19", 0, 0, {}]]]
      },
      {
        "class_name": "LeakyReLU",
        "config": {
          "name": "leaky_19",
          "trainable": true,
          "dtype": "float32",
          "alpha": 0.10000000149011612
        },
        "name": "leaky_19",
        "inbound_nodes": [[["bnorm_19", 0, 0, {}]]]
      },
      {
        "class_name": "Conv2D",
        "config": {
          "name": "conv_20",
          "trainable": true,
          "dtype": "float32",
          "filters": 256,
          "kernel_size": [3, 3],
          "strides": [1, 1],
          "padding": "same",
          "data_format": "channels_last",
          "dilation_rate": [1, 1],
          "groups": 1,
          "activation": "linear",
          "use_bias": false,
          "kernel_initializer": {
            "class_name": "GlorotUniform",
            "config": { "seed": null }
          },
          "bias_initializer": { "class_name": "Zeros", "config": {} },
          "kernel_regularizer": null,
          "bias_regularizer": null,
          "activity_regularizer": null,
          "kernel_constraint": null,
          "bias_constraint": null
        },
        "name": "conv_20",
        "inbound_nodes": [[["leaky_19", 0, 0, {}]]]
      },
      {
        "class_name": "BatchNormalization",
        "config": {
          "name": "bnorm_20",
          "trainable": true,
          "dtype": "float32",
          "axis": [3],
          "momentum": 0.99,
          "epsilon": 0.001,
          "center": true,
          "scale": true,
          "beta_initializer": { "class_name": "Zeros", "config": {} },
          "gamma_initializer": { "class_name": "Ones", "config": {} },
          "moving_mean_initializer": { "class_name": "Zeros", "config": {} },
          "moving_variance_initializer": { "class_name": "Ones", "config": {} },
          "beta_regularizer": null,
          "gamma_regularizer": null,
          "beta_constraint": null,
          "gamma_constraint": null
        },
        "name": "bnorm_20",
        "inbound_nodes": [[["conv_20", 0, 0, {}]]]
      },
      {
        "class_name": "LeakyReLU",
        "config": {
          "name": "leaky_20",
          "trainable": true,
          "dtype": "float32",
          "alpha": 0.10000000149011612
        },
        "name": "leaky_20",
        "inbound_nodes": [[["bnorm_20", 0, 0, {}]]]
      },
      {
        "class_name": "TFOpLambda",
        "config": {
          "name": "tf.__operators__.add_5",
          "trainable": true,
          "dtype": "float32",
          "function": "__operators__.add"
        },
        "name": "tf.__operators__.add_5",
        "inbound_nodes": [
          [
            "leaky_20",
            0,
            0,
            { "y": ["tf.__operators__.add_4", 0, 0], "name": null }
          ]
        ]
      },
      {
        "class_name": "Conv2D",
        "config": {
          "name": "conv_22",
          "trainable": true,
          "dtype": "float32",
          "filters": 128,
          "kernel_size": [1, 1],
          "strides": [1, 1],
          "padding": "same",
          "data_format": "channels_last",
          "dilation_rate": [1, 1],
          "groups": 1,
          "activation": "linear",
          "use_bias": false,
          "kernel_initializer": {
            "class_name": "GlorotUniform",
            "config": { "seed": null }
          },
          "bias_initializer": { "class_name": "Zeros", "config": {} },
          "kernel_regularizer": null,
          "bias_regularizer": null,
          "activity_regularizer": null,
          "kernel_constraint": null,
          "bias_constraint": null
        },
        "name": "conv_22",
        "inbound_nodes": [[["tf.__operators__.add_5", 0, 0, {}]]]
      },
      {
        "class_name": "BatchNormalization",
        "config": {
          "name": "bnorm_22",
          "trainable": true,
          "dtype": "float32",
          "axis": [3],
          "momentum": 0.99,
          "epsilon": 0.001,
          "center": true,
          "scale": true,
          "beta_initializer": { "class_name": "Zeros", "config": {} },
          "gamma_initializer": { "class_name": "Ones", "config": {} },
          "moving_mean_initializer": { "class_name": "Zeros", "config": {} },
          "moving_variance_initializer": { "class_name": "Ones", "config": {} },
          "beta_regularizer": null,
          "gamma_regularizer": null,
          "beta_constraint": null,
          "gamma_constraint": null
        },
        "name": "bnorm_22",
        "inbound_nodes": [[["conv_22", 0, 0, {}]]]
      },
      {
        "class_name": "LeakyReLU",
        "config": {
          "name": "leaky_22",
          "trainable": true,
          "dtype": "float32",
          "alpha": 0.10000000149011612
        },
        "name": "leaky_22",
        "inbound_nodes": [[["bnorm_22", 0, 0, {}]]]
      },
      {
        "class_name": "Conv2D",
        "config": {
          "name": "conv_23",
          "trainable": true,
          "dtype": "float32",
          "filters": 256,
          "kernel_size": [3, 3],
          "strides": [1, 1],
          "padding": "same",
          "data_format": "channels_last",
          "dilation_rate": [1, 1],
          "groups": 1,
          "activation": "linear",
          "use_bias": false,
          "kernel_initializer": {
            "class_name": "GlorotUniform",
            "config": { "seed": null }
          },
          "bias_initializer": { "class_name": "Zeros", "config": {} },
          "kernel_regularizer": null,
          "bias_regularizer": null,
          "activity_regularizer": null,
          "kernel_constraint": null,
          "bias_constraint": null
        },
        "name": "conv_23",
        "inbound_nodes": [[["leaky_22", 0, 0, {}]]]
      },
      {
        "class_name": "BatchNormalization",
        "config": {
          "name": "bnorm_23",
          "trainable": true,
          "dtype": "float32",
          "axis": [3],
          "momentum": 0.99,
          "epsilon": 0.001,
          "center": true,
          "scale": true,
          "beta_initializer": { "class_name": "Zeros", "config": {} },
          "gamma_initializer": { "class_name": "Ones", "config": {} },
          "moving_mean_initializer": { "class_name": "Zeros", "config": {} },
          "moving_variance_initializer": { "class_name": "Ones", "config": {} },
          "beta_regularizer": null,
          "gamma_regularizer": null,
          "beta_constraint": null,
          "gamma_constraint": null
        },
        "name": "bnorm_23",
        "inbound_nodes": [[["conv_23", 0, 0, {}]]]
      },
      {
        "class_name": "LeakyReLU",
        "config": {
          "name": "leaky_23",
          "trainable": true,
          "dtype": "float32",
          "alpha": 0.10000000149011612
        },
        "name": "leaky_23",
        "inbound_nodes": [[["bnorm_23", 0, 0, {}]]]
      },
      {
        "class_name": "TFOpLambda",
        "config": {
          "name": "tf.__operators__.add_6",
          "trainable": true,
          "dtype": "float32",
          "function": "__operators__.add"
        },
        "name": "tf.__operators__.add_6",
        "inbound_nodes": [
          [
            "leaky_23",
            0,
            0,
            { "y": ["tf.__operators__.add_5", 0, 0], "name": null }
          ]
        ]
      },
      {
        "class_name": "Conv2D",
        "config": {
          "name": "conv_25",
          "trainable": true,
          "dtype": "float32",
          "filters": 128,
          "kernel_size": [1, 1],
          "strides": [1, 1],
          "padding": "same",
          "data_format": "channels_last",
          "dilation_rate": [1, 1],
          "groups": 1,
          "activation": "linear",
          "use_bias": false,
          "kernel_initializer": {
            "class_name": "GlorotUniform",
            "config": { "seed": null }
          },
          "bias_initializer": { "class_name": "Zeros", "config": {} },
          "kernel_regularizer": null,
          "bias_regularizer": null,
          "activity_regularizer": null,
          "kernel_constraint": null,
          "bias_constraint": null
        },
        "name": "conv_25",
        "inbound_nodes": [[["tf.__operators__.add_6", 0, 0, {}]]]
      },
      {
        "class_name": "BatchNormalization",
        "config": {
          "name": "bnorm_25",
          "trainable": true,
          "dtype": "float32",
          "axis": [3],
          "momentum": 0.99,
          "epsilon": 0.001,
          "center": true,
          "scale": true,
          "beta_initializer": { "class_name": "Zeros", "config": {} },
          "gamma_initializer": { "class_name": "Ones", "config": {} },
          "moving_mean_initializer": { "class_name": "Zeros", "config": {} },
          "moving_variance_initializer": { "class_name": "Ones", "config": {} },
          "beta_regularizer": null,
          "gamma_regularizer": null,
          "beta_constraint": null,
          "gamma_constraint": null
        },
        "name": "bnorm_25",
        "inbound_nodes": [[["conv_25", 0, 0, {}]]]
      },
      {
        "class_name": "LeakyReLU",
        "config": {
          "name": "leaky_25",
          "trainable": true,
          "dtype": "float32",
          "alpha": 0.10000000149011612
        },
        "name": "leaky_25",
        "inbound_nodes": [[["bnorm_25", 0, 0, {}]]]
      },
      {
        "class_name": "Conv2D",
        "config": {
          "name": "conv_26",
          "trainable": true,
          "dtype": "float32",
          "filters": 256,
          "kernel_size": [3, 3],
          "strides": [1, 1],
          "padding": "same",
          "data_format": "channels_last",
          "dilation_rate": [1, 1],
          "groups": 1,
          "activation": "linear",
          "use_bias": false,
          "kernel_initializer": {
            "class_name": "GlorotUniform",
            "config": { "seed": null }
          },
          "bias_initializer": { "class_name": "Zeros", "config": {} },
          "kernel_regularizer": null,
          "bias_regularizer": null,
          "activity_regularizer": null,
          "kernel_constraint": null,
          "bias_constraint": null
        },
        "name": "conv_26",
        "inbound_nodes": [[["leaky_25", 0, 0, {}]]]
      },
      {
        "class_name": "BatchNormalization",
        "config": {
          "name": "bnorm_26",
          "trainable": true,
          "dtype": "float32",
          "axis": [3],
          "momentum": 0.99,
          "epsilon": 0.001,
          "center": true,
          "scale": true,
          "beta_initializer": { "class_name": "Zeros", "config": {} },
          "gamma_initializer": { "class_name": "Ones", "config": {} },
          "moving_mean_initializer": { "class_name": "Zeros", "config": {} },
          "moving_variance_initializer": { "class_name": "Ones", "config": {} },
          "beta_regularizer": null,
          "gamma_regularizer": null,
          "beta_constraint": null,
          "gamma_constraint": null
        },
        "name": "bnorm_26",
        "inbound_nodes": [[["conv_26", 0, 0, {}]]]
      },
      {
        "class_name": "LeakyReLU",
        "config": {
          "name": "leaky_26",
          "trainable": true,
          "dtype": "float32",
          "alpha": 0.10000000149011612
        },
        "name": "leaky_26",
        "inbound_nodes": [[["bnorm_26", 0, 0, {}]]]
      },
      {
        "class_name": "TFOpLambda",
        "config": {
          "name": "tf.__operators__.add_7",
          "trainable": true,
          "dtype": "float32",
          "function": "__operators__.add"
        },
        "name": "tf.__operators__.add_7",
        "inbound_nodes": [
          [
            "leaky_26",
            0,
            0,
            { "y": ["tf.__operators__.add_6", 0, 0], "name": null }
          ]
        ]
      },
      {
        "class_name": "Conv2D",
        "config": {
          "name": "conv_28",
          "trainable": true,
          "dtype": "float32",
          "filters": 128,
          "kernel_size": [1, 1],
          "strides": [1, 1],
          "padding": "same",
          "data_format": "channels_last",
          "dilation_rate": [1, 1],
          "groups": 1,
          "activation": "linear",
          "use_bias": false,
          "kernel_initializer": {
            "class_name": "GlorotUniform",
            "config": { "seed": null }
          },
          "bias_initializer": { "class_name": "Zeros", "config": {} },
          "kernel_regularizer": null,
          "bias_regularizer": null,
          "activity_regularizer": null,
          "kernel_constraint": null,
          "bias_constraint": null
        },
        "name": "conv_28",
        "inbound_nodes": [[["tf.__operators__.add_7", 0, 0, {}]]]
      },
      {
        "class_name": "BatchNormalization",
        "config": {
          "name": "bnorm_28",
          "trainable": true,
          "dtype": "float32",
          "axis": [3],
          "momentum": 0.99,
          "epsilon": 0.001,
          "center": true,
          "scale": true,
          "beta_initializer": { "class_name": "Zeros", "config": {} },
          "gamma_initializer": { "class_name": "Ones", "config": {} },
          "moving_mean_initializer": { "class_name": "Zeros", "config": {} },
          "moving_variance_initializer": { "class_name": "Ones", "config": {} },
          "beta_regularizer": null,
          "gamma_regularizer": null,
          "beta_constraint": null,
          "gamma_constraint": null
        },
        "name": "bnorm_28",
        "inbound_nodes": [[["conv_28", 0, 0, {}]]]
      },
      {
        "class_name": "LeakyReLU",
        "config": {
          "name": "leaky_28",
          "trainable": true,
          "dtype": "float32",
          "alpha": 0.10000000149011612
        },
        "name": "leaky_28",
        "inbound_nodes": [[["bnorm_28", 0, 0, {}]]]
      },
      {
        "class_name": "Conv2D",
        "config": {
          "name": "conv_29",
          "trainable": true,
          "dtype": "float32",
          "filters": 256,
          "kernel_size": [3, 3],
          "strides": [1, 1],
          "padding": "same",
          "data_format": "channels_last",
          "dilation_rate": [1, 1],
          "groups": 1,
          "activation": "linear",
          "use_bias": false,
          "kernel_initializer": {
            "class_name": "GlorotUniform",
            "config": { "seed": null }
          },
          "bias_initializer": { "class_name": "Zeros", "config": {} },
          "kernel_regularizer": null,
          "bias_regularizer": null,
          "activity_regularizer": null,
          "kernel_constraint": null,
          "bias_constraint": null
        },
        "name": "conv_29",
        "inbound_nodes": [[["leaky_28", 0, 0, {}]]]
      },
      {
        "class_name": "BatchNormalization",
        "config": {
          "name": "bnorm_29",
          "trainable": true,
          "dtype": "float32",
          "axis": [3],
          "momentum": 0.99,
          "epsilon": 0.001,
          "center": true,
          "scale": true,
          "beta_initializer": { "class_name": "Zeros", "config": {} },
          "gamma_initializer": { "class_name": "Ones", "config": {} },
          "moving_mean_initializer": { "class_name": "Zeros", "config": {} },
          "moving_variance_initializer": { "class_name": "Ones", "config": {} },
          "beta_regularizer": null,
          "gamma_regularizer": null,
          "beta_constraint": null,
          "gamma_constraint": null
        },
        "name": "bnorm_29",
        "inbound_nodes": [[["conv_29", 0, 0, {}]]]
      },
      {
        "class_name": "LeakyReLU",
        "config": {
          "name": "leaky_29",
          "trainable": true,
          "dtype": "float32",
          "alpha": 0.10000000149011612
        },
        "name": "leaky_29",
        "inbound_nodes": [[["bnorm_29", 0, 0, {}]]]
      },
      {
        "class_name": "TFOpLambda",
        "config": {
          "name": "tf.__operators__.add_8",
          "trainable": true,
          "dtype": "float32",
          "function": "__operators__.add"
        },
        "name": "tf.__operators__.add_8",
        "inbound_nodes": [
          [
            "leaky_29",
            0,
            0,
            { "y": ["tf.__operators__.add_7", 0, 0], "name": null }
          ]
        ]
      },
      {
        "class_name": "Conv2D",
        "config": {
          "name": "conv_31",
          "trainable": true,
          "dtype": "float32",
          "filters": 128,
          "kernel_size": [1, 1],
          "strides": [1, 1],
          "padding": "same",
          "data_format": "channels_last",
          "dilation_rate": [1, 1],
          "groups": 1,
          "activation": "linear",
          "use_bias": false,
          "kernel_initializer": {
            "class_name": "GlorotUniform",
            "config": { "seed": null }
          },
          "bias_initializer": { "class_name": "Zeros", "config": {} },
          "kernel_regularizer": null,
          "bias_regularizer": null,
          "activity_regularizer": null,
          "kernel_constraint": null,
          "bias_constraint": null
        },
        "name": "conv_31",
        "inbound_nodes": [[["tf.__operators__.add_8", 0, 0, {}]]]
      },
      {
        "class_name": "BatchNormalization",
        "config": {
          "name": "bnorm_31",
          "trainable": true,
          "dtype": "float32",
          "axis": [3],
          "momentum": 0.99,
          "epsilon": 0.001,
          "center": true,
          "scale": true,
          "beta_initializer": { "class_name": "Zeros", "config": {} },
          "gamma_initializer": { "class_name": "Ones", "config": {} },
          "moving_mean_initializer": { "class_name": "Zeros", "config": {} },
          "moving_variance_initializer": { "class_name": "Ones", "config": {} },
          "beta_regularizer": null,
          "gamma_regularizer": null,
          "beta_constraint": null,
          "gamma_constraint": null
        },
        "name": "bnorm_31",
        "inbound_nodes": [[["conv_31", 0, 0, {}]]]
      },
      {
        "class_name": "LeakyReLU",
        "config": {
          "name": "leaky_31",
          "trainable": true,
          "dtype": "float32",
          "alpha": 0.10000000149011612
        },
        "name": "leaky_31",
        "inbound_nodes": [[["bnorm_31", 0, 0, {}]]]
      },
      {
        "class_name": "Conv2D",
        "config": {
          "name": "conv_32",
          "trainable": true,
          "dtype": "float32",
          "filters": 256,
          "kernel_size": [3, 3],
          "strides": [1, 1],
          "padding": "same",
          "data_format": "channels_last",
          "dilation_rate": [1, 1],
          "groups": 1,
          "activation": "linear",
          "use_bias": false,
          "kernel_initializer": {
            "class_name": "GlorotUniform",
            "config": { "seed": null }
          },
          "bias_initializer": { "class_name": "Zeros", "config": {} },
          "kernel_regularizer": null,
          "bias_regularizer": null,
          "activity_regularizer": null,
          "kernel_constraint": null,
          "bias_constraint": null
        },
        "name": "conv_32",
        "inbound_nodes": [[["leaky_31", 0, 0, {}]]]
      },
      {
        "class_name": "BatchNormalization",
        "config": {
          "name": "bnorm_32",
          "trainable": true,
          "dtype": "float32",
          "axis": [3],
          "momentum": 0.99,
          "epsilon": 0.001,
          "center": true,
          "scale": true,
          "beta_initializer": { "class_name": "Zeros", "config": {} },
          "gamma_initializer": { "class_name": "Ones", "config": {} },
          "moving_mean_initializer": { "class_name": "Zeros", "config": {} },
          "moving_variance_initializer": { "class_name": "Ones", "config": {} },
          "beta_regularizer": null,
          "gamma_regularizer": null,
          "beta_constraint": null,
          "gamma_constraint": null
        },
        "name": "bnorm_32",
        "inbound_nodes": [[["conv_32", 0, 0, {}]]]
      },
      {
        "class_name": "LeakyReLU",
        "config": {
          "name": "leaky_32",
          "trainable": true,
          "dtype": "float32",
          "alpha": 0.10000000149011612
        },
        "name": "leaky_32",
        "inbound_nodes": [[["bnorm_32", 0, 0, {}]]]
      },
      {
        "class_name": "TFOpLambda",
        "config": {
          "name": "tf.__operators__.add_9",
          "trainable": true,
          "dtype": "float32",
          "function": "__operators__.add"
        },
        "name": "tf.__operators__.add_9",
        "inbound_nodes": [
          [
            "leaky_32",
            0,
            0,
            { "y": ["tf.__operators__.add_8", 0, 0], "name": null }
          ]
        ]
      },
      {
        "class_name": "Conv2D",
        "config": {
          "name": "conv_34",
          "trainable": true,
          "dtype": "float32",
          "filters": 128,
          "kernel_size": [1, 1],
          "strides": [1, 1],
          "padding": "same",
          "data_format": "channels_last",
          "dilation_rate": [1, 1],
          "groups": 1,
          "activation": "linear",
          "use_bias": false,
          "kernel_initializer": {
            "class_name": "GlorotUniform",
            "config": { "seed": null }
          },
          "bias_initializer": { "class_name": "Zeros", "config": {} },
          "kernel_regularizer": null,
          "bias_regularizer": null,
          "activity_regularizer": null,
          "kernel_constraint": null,
          "bias_constraint": null
        },
        "name": "conv_34",
        "inbound_nodes": [[["tf.__operators__.add_9", 0, 0, {}]]]
      },
      {
        "class_name": "BatchNormalization",
        "config": {
          "name": "bnorm_34",
          "trainable": true,
          "dtype": "float32",
          "axis": [3],
          "momentum": 0.99,
          "epsilon": 0.001,
          "center": true,
          "scale": true,
          "beta_initializer": { "class_name": "Zeros", "config": {} },
          "gamma_initializer": { "class_name": "Ones", "config": {} },
          "moving_mean_initializer": { "class_name": "Zeros", "config": {} },
          "moving_variance_initializer": { "class_name": "Ones", "config": {} },
          "beta_regularizer": null,
          "gamma_regularizer": null,
          "beta_constraint": null,
          "gamma_constraint": null
        },
        "name": "bnorm_34",
        "inbound_nodes": [[["conv_34", 0, 0, {}]]]
      },
      {
        "class_name": "LeakyReLU",
        "config": {
          "name": "leaky_34",
          "trainable": true,
          "dtype": "float32",
          "alpha": 0.10000000149011612
        },
        "name": "leaky_34",
        "inbound_nodes": [[["bnorm_34", 0, 0, {}]]]
      },
      {
        "class_name": "Conv2D",
        "config": {
          "name": "conv_35",
          "trainable": true,
          "dtype": "float32",
          "filters": 256,
          "kernel_size": [3, 3],
          "strides": [1, 1],
          "padding": "same",
          "data_format": "channels_last",
          "dilation_rate": [1, 1],
          "groups": 1,
          "activation": "linear",
          "use_bias": false,
          "kernel_initializer": {
            "class_name": "GlorotUniform",
            "config": { "seed": null }
          },
          "bias_initializer": { "class_name": "Zeros", "config": {} },
          "kernel_regularizer": null,
          "bias_regularizer": null,
          "activity_regularizer": null,
          "kernel_constraint": null,
          "bias_constraint": null
        },
        "name": "conv_35",
        "inbound_nodes": [[["leaky_34", 0, 0, {}]]]
      },
      {
        "class_name": "BatchNormalization",
        "config": {
          "name": "bnorm_35",
          "trainable": true,
          "dtype": "float32",
          "axis": [3],
          "momentum": 0.99,
          "epsilon": 0.001,
          "center": true,
          "scale": true,
          "beta_initializer": { "class_name": "Zeros", "config": {} },
          "gamma_initializer": { "class_name": "Ones", "config": {} },
          "moving_mean_initializer": { "class_name": "Zeros", "config": {} },
          "moving_variance_initializer": { "class_name": "Ones", "config": {} },
          "beta_regularizer": null,
          "gamma_regularizer": null,
          "beta_constraint": null,
          "gamma_constraint": null
        },
        "name": "bnorm_35",
        "inbound_nodes": [[["conv_35", 0, 0, {}]]]
      },
      {
        "class_name": "LeakyReLU",
        "config": {
          "name": "leaky_35",
          "trainable": true,
          "dtype": "float32",
          "alpha": 0.10000000149011612
        },
        "name": "leaky_35",
        "inbound_nodes": [[["bnorm_35", 0, 0, {}]]]
      },
      {
        "class_name": "TFOpLambda",
        "config": {
          "name": "tf.__operators__.add_10",
          "trainable": true,
          "dtype": "float32",
          "function": "__operators__.add"
        },
        "name": "tf.__operators__.add_10",
        "inbound_nodes": [
          [
            "leaky_35",
            0,
            0,
            { "y": ["tf.__operators__.add_9", 0, 0], "name": null }
          ]
        ]
      },
      {
        "class_name": "ZeroPadding2D",
        "config": {
          "name": "zero_padding2d_3",
          "trainable": true,
          "dtype": "float32",
          "padding": [
            [1, 0],
            [1, 0]
          ],
          "data_format": "channels_last"
        },
        "name": "zero_padding2d_3",
        "inbound_nodes": [[["tf.__operators__.add_10", 0, 0, {}]]]
      },
      {
        "class_name": "Conv2D",
        "config": {
          "name": "conv_37",
          "trainable": true,
          "dtype": "float32",
          "filters": 512,
          "kernel_size": [3, 3],
          "strides": [2, 2],
          "padding": "valid",
          "data_format": "channels_last",
          "dilation_rate": [1, 1],
          "groups": 1,
          "activation": "linear",
          "use_bias": false,
          "kernel_initializer": {
            "class_name": "GlorotUniform",
            "config": { "seed": null }
          },
          "bias_initializer": { "class_name": "Zeros", "config": {} },
          "kernel_regularizer": null,
          "bias_regularizer": null,
          "activity_regularizer": null,
          "kernel_constraint": null,
          "bias_constraint": null
        },
        "name": "conv_37",
        "inbound_nodes": [[["zero_padding2d_3", 0, 0, {}]]]
      },
      {
        "class_name": "BatchNormalization",
        "config": {
          "name": "bnorm_37",
          "trainable": true,
          "dtype": "float32",
          "axis": [3],
          "momentum": 0.99,
          "epsilon": 0.001,
          "center": true,
          "scale": true,
          "beta_initializer": { "class_name": "Zeros", "config": {} },
          "gamma_initializer": { "class_name": "Ones", "config": {} },
          "moving_mean_initializer": { "class_name": "Zeros", "config": {} },
          "moving_variance_initializer": { "class_name": "Ones", "config": {} },
          "beta_regularizer": null,
          "gamma_regularizer": null,
          "beta_constraint": null,
          "gamma_constraint": null
        },
        "name": "bnorm_37",
        "inbound_nodes": [[["conv_37", 0, 0, {}]]]
      },
      {
        "class_name": "LeakyReLU",
        "config": {
          "name": "leaky_37",
          "trainable": true,
          "dtype": "float32",
          "alpha": 0.10000000149011612
        },
        "name": "leaky_37",
        "inbound_nodes": [[["bnorm_37", 0, 0, {}]]]
      },
      {
        "class_name": "Conv2D",
        "config": {
          "name": "conv_38",
          "trainable": true,
          "dtype": "float32",
          "filters": 256,
          "kernel_size": [1, 1],
          "strides": [1, 1],
          "padding": "same",
          "data_format": "channels_last",
          "dilation_rate": [1, 1],
          "groups": 1,
          "activation": "linear",
          "use_bias": false,
          "kernel_initializer": {
            "class_name": "GlorotUniform",
            "config": { "seed": null }
          },
          "bias_initializer": { "class_name": "Zeros", "config": {} },
          "kernel_regularizer": null,
          "bias_regularizer": null,
          "activity_regularizer": null,
          "kernel_constraint": null,
          "bias_constraint": null
        },
        "name": "conv_38",
        "inbound_nodes": [[["leaky_37", 0, 0, {}]]]
      },
      {
        "class_name": "BatchNormalization",
        "config": {
          "name": "bnorm_38",
          "trainable": true,
          "dtype": "float32",
          "axis": [3],
          "momentum": 0.99,
          "epsilon": 0.001,
          "center": true,
          "scale": true,
          "beta_initializer": { "class_name": "Zeros", "config": {} },
          "gamma_initializer": { "class_name": "Ones", "config": {} },
          "moving_mean_initializer": { "class_name": "Zeros", "config": {} },
          "moving_variance_initializer": { "class_name": "Ones", "config": {} },
          "beta_regularizer": null,
          "gamma_regularizer": null,
          "beta_constraint": null,
          "gamma_constraint": null
        },
        "name": "bnorm_38",
        "inbound_nodes": [[["conv_38", 0, 0, {}]]]
      },
      {
        "class_name": "LeakyReLU",
        "config": {
          "name": "leaky_38",
          "trainable": true,
          "dtype": "float32",
          "alpha": 0.10000000149011612
        },
        "name": "leaky_38",
        "inbound_nodes": [[["bnorm_38", 0, 0, {}]]]
      },
      {
        "class_name": "Conv2D",
        "config": {
          "name": "conv_39",
          "trainable": true,
          "dtype": "float32",
          "filters": 512,
          "kernel_size": [3, 3],
          "strides": [1, 1],
          "padding": "same",
          "data_format": "channels_last",
          "dilation_rate": [1, 1],
          "groups": 1,
          "activation": "linear",
          "use_bias": false,
          "kernel_initializer": {
            "class_name": "GlorotUniform",
            "config": { "seed": null }
          },
          "bias_initializer": { "class_name": "Zeros", "config": {} },
          "kernel_regularizer": null,
          "bias_regularizer": null,
          "activity_regularizer": null,
          "kernel_constraint": null,
          "bias_constraint": null
        },
        "name": "conv_39",
        "inbound_nodes": [[["leaky_38", 0, 0, {}]]]
      },
      {
        "class_name": "BatchNormalization",
        "config": {
          "name": "bnorm_39",
          "trainable": true,
          "dtype": "float32",
          "axis": [3],
          "momentum": 0.99,
          "epsilon": 0.001,
          "center": true,
          "scale": true,
          "beta_initializer": { "class_name": "Zeros", "config": {} },
          "gamma_initializer": { "class_name": "Ones", "config": {} },
          "moving_mean_initializer": { "class_name": "Zeros", "config": {} },
          "moving_variance_initializer": { "class_name": "Ones", "config": {} },
          "beta_regularizer": null,
          "gamma_regularizer": null,
          "beta_constraint": null,
          "gamma_constraint": null
        },
        "name": "bnorm_39",
        "inbound_nodes": [[["conv_39", 0, 0, {}]]]
      },
      {
        "class_name": "LeakyReLU",
        "config": {
          "name": "leaky_39",
          "trainable": true,
          "dtype": "float32",
          "alpha": 0.10000000149011612
        },
        "name": "leaky_39",
        "inbound_nodes": [[["bnorm_39", 0, 0, {}]]]
      },
      {
        "class_name": "TFOpLambda",
        "config": {
          "name": "tf.__operators__.add_11",
          "trainable": true,
          "dtype": "float32",
          "function": "__operators__.add"
        },
        "name": "tf.__operators__.add_11",
        "inbound_nodes": [
          ["leaky_39", 0, 0, { "y": ["leaky_37", 0, 0], "name": null }]
        ]
      },
      {
        "class_name": "Conv2D",
        "config": {
          "name": "conv_41",
          "trainable": true,
          "dtype": "float32",
          "filters": 256,
          "kernel_size": [1, 1],
          "strides": [1, 1],
          "padding": "same",
          "data_format": "channels_last",
          "dilation_rate": [1, 1],
          "groups": 1,
          "activation": "linear",
          "use_bias": false,
          "kernel_initializer": {
            "class_name": "GlorotUniform",
            "config": { "seed": null }
          },
          "bias_initializer": { "class_name": "Zeros", "config": {} },
          "kernel_regularizer": null,
          "bias_regularizer": null,
          "activity_regularizer": null,
          "kernel_constraint": null,
          "bias_constraint": null
        },
        "name": "conv_41",
        "inbound_nodes": [[["tf.__operators__.add_11", 0, 0, {}]]]
      },
      {
        "class_name": "BatchNormalization",
        "config": {
          "name": "bnorm_41",
          "trainable": true,
          "dtype": "float32",
          "axis": [3],
          "momentum": 0.99,
          "epsilon": 0.001,
          "center": true,
          "scale": true,
          "beta_initializer": { "class_name": "Zeros", "config": {} },
          "gamma_initializer": { "class_name": "Ones", "config": {} },
          "moving_mean_initializer": { "class_name": "Zeros", "config": {} },
          "moving_variance_initializer": { "class_name": "Ones", "config": {} },
          "beta_regularizer": null,
          "gamma_regularizer": null,
          "beta_constraint": null,
          "gamma_constraint": null
        },
        "name": "bnorm_41",
        "inbound_nodes": [[["conv_41", 0, 0, {}]]]
      },
      {
        "class_name": "LeakyReLU",
        "config": {
          "name": "leaky_41",
          "trainable": true,
          "dtype": "float32",
          "alpha": 0.10000000149011612
        },
        "name": "leaky_41",
        "inbound_nodes": [[["bnorm_41", 0, 0, {}]]]
      },
      {
        "class_name": "Conv2D",
        "config": {
          "name": "conv_42",
          "trainable": true,
          "dtype": "float32",
          "filters": 512,
          "kernel_size": [3, 3],
          "strides": [1, 1],
          "padding": "same",
          "data_format": "channels_last",
          "dilation_rate": [1, 1],
          "groups": 1,
          "activation": "linear",
          "use_bias": false,
          "kernel_initializer": {
            "class_name": "GlorotUniform",
            "config": { "seed": null }
          },
          "bias_initializer": { "class_name": "Zeros", "config": {} },
          "kernel_regularizer": null,
          "bias_regularizer": null,
          "activity_regularizer": null,
          "kernel_constraint": null,
          "bias_constraint": null
        },
        "name": "conv_42",
        "inbound_nodes": [[["leaky_41", 0, 0, {}]]]
      },
      {
        "class_name": "BatchNormalization",
        "config": {
          "name": "bnorm_42",
          "trainable": true,
          "dtype": "float32",
          "axis": [3],
          "momentum": 0.99,
          "epsilon": 0.001,
          "center": true,
          "scale": true,
          "beta_initializer": { "class_name": "Zeros", "config": {} },
          "gamma_initializer": { "class_name": "Ones", "config": {} },
          "moving_mean_initializer": { "class_name": "Zeros", "config": {} },
          "moving_variance_initializer": { "class_name": "Ones", "config": {} },
          "beta_regularizer": null,
          "gamma_regularizer": null,
          "beta_constraint": null,
          "gamma_constraint": null
        },
        "name": "bnorm_42",
        "inbound_nodes": [[["conv_42", 0, 0, {}]]]
      },
      {
        "class_name": "LeakyReLU",
        "config": {
          "name": "leaky_42",
          "trainable": true,
          "dtype": "float32",
          "alpha": 0.10000000149011612
        },
        "name": "leaky_42",
        "inbound_nodes": [[["bnorm_42", 0, 0, {}]]]
      },
      {
        "class_name": "TFOpLambda",
        "config": {
          "name": "tf.__operators__.add_12",
          "trainable": true,
          "dtype": "float32",
          "function": "__operators__.add"
        },
        "name": "tf.__operators__.add_12",
        "inbound_nodes": [
          [
            "leaky_42",
            0,
            0,
            { "y": ["tf.__operators__.add_11", 0, 0], "name": null }
          ]
        ]
      },
      {
        "class_name": "Conv2D",
        "config": {
          "name": "conv_44",
          "trainable": true,
          "dtype": "float32",
          "filters": 256,
          "kernel_size": [1, 1],
          "strides": [1, 1],
          "padding": "same",
          "data_format": "channels_last",
          "dilation_rate": [1, 1],
          "groups": 1,
          "activation": "linear",
          "use_bias": false,
          "kernel_initializer": {
            "class_name": "GlorotUniform",
            "config": { "seed": null }
          },
          "bias_initializer": { "class_name": "Zeros", "config": {} },
          "kernel_regularizer": null,
          "bias_regularizer": null,
          "activity_regularizer": null,
          "kernel_constraint": null,
          "bias_constraint": null
        },
        "name": "conv_44",
        "inbound_nodes": [[["tf.__operators__.add_12", 0, 0, {}]]]
      },
      {
        "class_name": "BatchNormalization",
        "config": {
          "name": "bnorm_44",
          "trainable": true,
          "dtype": "float32",
          "axis": [3],
          "momentum": 0.99,
          "epsilon": 0.001,
          "center": true,
          "scale": true,
          "beta_initializer": { "class_name": "Zeros", "config": {} },
          "gamma_initializer": { "class_name": "Ones", "config": {} },
          "moving_mean_initializer": { "class_name": "Zeros", "config": {} },
          "moving_variance_initializer": { "class_name": "Ones", "config": {} },
          "beta_regularizer": null,
          "gamma_regularizer": null,
          "beta_constraint": null,
          "gamma_constraint": null
        },
        "name": "bnorm_44",
        "inbound_nodes": [[["conv_44", 0, 0, {}]]]
      },
      {
        "class_name": "LeakyReLU",
        "config": {
          "name": "leaky_44",
          "trainable": true,
          "dtype": "float32",
          "alpha": 0.10000000149011612
        },
        "name": "leaky_44",
        "inbound_nodes": [[["bnorm_44", 0, 0, {}]]]
      },
      {
        "class_name": "Conv2D",
        "config": {
          "name": "conv_45",
          "trainable": true,
          "dtype": "float32",
          "filters": 512,
          "kernel_size": [3, 3],
          "strides": [1, 1],
          "padding": "same",
          "data_format": "channels_last",
          "dilation_rate": [1, 1],
          "groups": 1,
          "activation": "linear",
          "use_bias": false,
          "kernel_initializer": {
            "class_name": "GlorotUniform",
            "config": { "seed": null }
          },
          "bias_initializer": { "class_name": "Zeros", "config": {} },
          "kernel_regularizer": null,
          "bias_regularizer": null,
          "activity_regularizer": null,
          "kernel_constraint": null,
          "bias_constraint": null
        },
        "name": "conv_45",
        "inbound_nodes": [[["leaky_44", 0, 0, {}]]]
      },
      {
        "class_name": "BatchNormalization",
        "config": {
          "name": "bnorm_45",
          "trainable": true,
          "dtype": "float32",
          "axis": [3],
          "momentum": 0.99,
          "epsilon": 0.001,
          "center": true,
          "scale": true,
          "beta_initializer": { "class_name": "Zeros", "config": {} },
          "gamma_initializer": { "class_name": "Ones", "config": {} },
          "moving_mean_initializer": { "class_name": "Zeros", "config": {} },
          "moving_variance_initializer": { "class_name": "Ones", "config": {} },
          "beta_regularizer": null,
          "gamma_regularizer": null,
          "beta_constraint": null,
          "gamma_constraint": null
        },
        "name": "bnorm_45",
        "inbound_nodes": [[["conv_45", 0, 0, {}]]]
      },
      {
        "class_name": "LeakyReLU",
        "config": {
          "name": "leaky_45",
          "trainable": true,
          "dtype": "float32",
          "alpha": 0.10000000149011612
        },
        "name": "leaky_45",
        "inbound_nodes": [[["bnorm_45", 0, 0, {}]]]
      },
      {
        "class_name": "TFOpLambda",
        "config": {
          "name": "tf.__operators__.add_13",
          "trainable": true,
          "dtype": "float32",
          "function": "__operators__.add"
        },
        "name": "tf.__operators__.add_13",
        "inbound_nodes": [
          [
            "leaky_45",
            0,
            0,
            { "y": ["tf.__operators__.add_12", 0, 0], "name": null }
          ]
        ]
      },
      {
        "class_name": "Conv2D",
        "config": {
          "name": "conv_47",
          "trainable": true,
          "dtype": "float32",
          "filters": 256,
          "kernel_size": [1, 1],
          "strides": [1, 1],
          "padding": "same",
          "data_format": "channels_last",
          "dilation_rate": [1, 1],
          "groups": 1,
          "activation": "linear",
          "use_bias": false,
          "kernel_initializer": {
            "class_name": "GlorotUniform",
            "config": { "seed": null }
          },
          "bias_initializer": { "class_name": "Zeros", "config": {} },
          "kernel_regularizer": null,
          "bias_regularizer": null,
          "activity_regularizer": null,
          "kernel_constraint": null,
          "bias_constraint": null
        },
        "name": "conv_47",
        "inbound_nodes": [[["tf.__operators__.add_13", 0, 0, {}]]]
      },
      {
        "class_name": "BatchNormalization",
        "config": {
          "name": "bnorm_47",
          "trainable": true,
          "dtype": "float32",
          "axis": [3],
          "momentum": 0.99,
          "epsilon": 0.001,
          "center": true,
          "scale": true,
          "beta_initializer": { "class_name": "Zeros", "config": {} },
          "gamma_initializer": { "class_name": "Ones", "config": {} },
          "moving_mean_initializer": { "class_name": "Zeros", "config": {} },
          "moving_variance_initializer": { "class_name": "Ones", "config": {} },
          "beta_regularizer": null,
          "gamma_regularizer": null,
          "beta_constraint": null,
          "gamma_constraint": null
        },
        "name": "bnorm_47",
        "inbound_nodes": [[["conv_47", 0, 0, {}]]]
      },
      {
        "class_name": "LeakyReLU",
        "config": {
          "name": "leaky_47",
          "trainable": true,
          "dtype": "float32",
          "alpha": 0.10000000149011612
        },
        "name": "leaky_47",
        "inbound_nodes": [[["bnorm_47", 0, 0, {}]]]
      },
      {
        "class_name": "Conv2D",
        "config": {
          "name": "conv_48",
          "trainable": true,
          "dtype": "float32",
          "filters": 512,
          "kernel_size": [3, 3],
          "strides": [1, 1],
          "padding": "same",
          "data_format": "channels_last",
          "dilation_rate": [1, 1],
          "groups": 1,
          "activation": "linear",
          "use_bias": false,
          "kernel_initializer": {
            "class_name": "GlorotUniform",
            "config": { "seed": null }
          },
          "bias_initializer": { "class_name": "Zeros", "config": {} },
          "kernel_regularizer": null,
          "bias_regularizer": null,
          "activity_regularizer": null,
          "kernel_constraint": null,
          "bias_constraint": null
        },
        "name": "conv_48",
        "inbound_nodes": [[["leaky_47", 0, 0, {}]]]
      },
      {
        "class_name": "BatchNormalization",
        "config": {
          "name": "bnorm_48",
          "trainable": true,
          "dtype": "float32",
          "axis": [3],
          "momentum": 0.99,
          "epsilon": 0.001,
          "center": true,
          "scale": true,
          "beta_initializer": { "class_name": "Zeros", "config": {} },
          "gamma_initializer": { "class_name": "Ones", "config": {} },
          "moving_mean_initializer": { "class_name": "Zeros", "config": {} },
          "moving_variance_initializer": { "class_name": "Ones", "config": {} },
          "beta_regularizer": null,
          "gamma_regularizer": null,
          "beta_constraint": null,
          "gamma_constraint": null
        },
        "name": "bnorm_48",
        "inbound_nodes": [[["conv_48", 0, 0, {}]]]
      },
      {
        "class_name": "LeakyReLU",
        "config": {
          "name": "leaky_48",
          "trainable": true,
          "dtype": "float32",
          "alpha": 0.10000000149011612
        },
        "name": "leaky_48",
        "inbound_nodes": [[["bnorm_48", 0, 0, {}]]]
      },
      {
        "class_name": "TFOpLambda",
        "config": {
          "name": "tf.__operators__.add_14",
          "trainable": true,
          "dtype": "float32",
          "function": "__operators__.add"
        },
        "name": "tf.__operators__.add_14",
        "inbound_nodes": [
          [
            "leaky_48",
            0,
            0,
            { "y": ["tf.__operators__.add_13", 0, 0], "name": null }
          ]
        ]
      },
      {
        "class_name": "Conv2D",
        "config": {
          "name": "conv_50",
          "trainable": true,
          "dtype": "float32",
          "filters": 256,
          "kernel_size": [1, 1],
          "strides": [1, 1],
          "padding": "same",
          "data_format": "channels_last",
          "dilation_rate": [1, 1],
          "groups": 1,
          "activation": "linear",
          "use_bias": false,
          "kernel_initializer": {
            "class_name": "GlorotUniform",
            "config": { "seed": null }
          },
          "bias_initializer": { "class_name": "Zeros", "config": {} },
          "kernel_regularizer": null,
          "bias_regularizer": null,
          "activity_regularizer": null,
          "kernel_constraint": null,
          "bias_constraint": null
        },
        "name": "conv_50",
        "inbound_nodes": [[["tf.__operators__.add_14", 0, 0, {}]]]
      },
      {
        "class_name": "BatchNormalization",
        "config": {
          "name": "bnorm_50",
          "trainable": true,
          "dtype": "float32",
          "axis": [3],
          "momentum": 0.99,
          "epsilon": 0.001,
          "center": true,
          "scale": true,
          "beta_initializer": { "class_name": "Zeros", "config": {} },
          "gamma_initializer": { "class_name": "Ones", "config": {} },
          "moving_mean_initializer": { "class_name": "Zeros", "config": {} },
          "moving_variance_initializer": { "class_name": "Ones", "config": {} },
          "beta_regularizer": null,
          "gamma_regularizer": null,
          "beta_constraint": null,
          "gamma_constraint": null
        },
        "name": "bnorm_50",
        "inbound_nodes": [[["conv_50", 0, 0, {}]]]
      },
      {
        "class_name": "LeakyReLU",
        "config": {
          "name": "leaky_50",
          "trainable": true,
          "dtype": "float32",
          "alpha": 0.10000000149011612
        },
        "name": "leaky_50",
        "inbound_nodes": [[["bnorm_50", 0, 0, {}]]]
      },
      {
        "class_name": "Conv2D",
        "config": {
          "name": "conv_51",
          "trainable": true,
          "dtype": "float32",
          "filters": 512,
          "kernel_size": [3, 3],
          "strides": [1, 1],
          "padding": "same",
          "data_format": "channels_last",
          "dilation_rate": [1, 1],
          "groups": 1,
          "activation": "linear",
          "use_bias": false,
          "kernel_initializer": {
            "class_name": "GlorotUniform",
            "config": { "seed": null }
          },
          "bias_initializer": { "class_name": "Zeros", "config": {} },
          "kernel_regularizer": null,
          "bias_regularizer": null,
          "activity_regularizer": null,
          "kernel_constraint": null,
          "bias_constraint": null
        },
        "name": "conv_51",
        "inbound_nodes": [[["leaky_50", 0, 0, {}]]]
      },
      {
        "class_name": "BatchNormalization",
        "config": {
          "name": "bnorm_51",
          "trainable": true,
          "dtype": "float32",
          "axis": [3],
          "momentum": 0.99,
          "epsilon": 0.001,
          "center": true,
          "scale": true,
          "beta_initializer": { "class_name": "Zeros", "config": {} },
          "gamma_initializer": { "class_name": "Ones", "config": {} },
          "moving_mean_initializer": { "class_name": "Zeros", "config": {} },
          "moving_variance_initializer": { "class_name": "Ones", "config": {} },
          "beta_regularizer": null,
          "gamma_regularizer": null,
          "beta_constraint": null,
          "gamma_constraint": null
        },
        "name": "bnorm_51",
        "inbound_nodes": [[["conv_51", 0, 0, {}]]]
      },
      {
        "class_name": "LeakyReLU",
        "config": {
          "name": "leaky_51",
          "trainable": true,
          "dtype": "float32",
          "alpha": 0.10000000149011612
        },
        "name": "leaky_51",
        "inbound_nodes": [[["bnorm_51", 0, 0, {}]]]
      },
      {
        "class_name": "TFOpLambda",
        "config": {
          "name": "tf.__operators__.add_15",
          "trainable": true,
          "dtype": "float32",
          "function": "__operators__.add"
        },
        "name": "tf.__operators__.add_15",
        "inbound_nodes": [
          [
            "leaky_51",
            0,
            0,
            { "y": ["tf.__operators__.add_14", 0, 0], "name": null }
          ]
        ]
      },
      {
        "class_name": "Conv2D",
        "config": {
          "name": "conv_53",
          "trainable": true,
          "dtype": "float32",
          "filters": 256,
          "kernel_size": [1, 1],
          "strides": [1, 1],
          "padding": "same",
          "data_format": "channels_last",
          "dilation_rate": [1, 1],
          "groups": 1,
          "activation": "linear",
          "use_bias": false,
          "kernel_initializer": {
            "class_name": "GlorotUniform",
            "config": { "seed": null }
          },
          "bias_initializer": { "class_name": "Zeros", "config": {} },
          "kernel_regularizer": null,
          "bias_regularizer": null,
          "activity_regularizer": null,
          "kernel_constraint": null,
          "bias_constraint": null
        },
        "name": "conv_53",
        "inbound_nodes": [[["tf.__operators__.add_15", 0, 0, {}]]]
      },
      {
        "class_name": "BatchNormalization",
        "config": {
          "name": "bnorm_53",
          "trainable": true,
          "dtype": "float32",
          "axis": [3],
          "momentum": 0.99,
          "epsilon": 0.001,
          "center": true,
          "scale": true,
          "beta_initializer": { "class_name": "Zeros", "config": {} },
          "gamma_initializer": { "class_name": "Ones", "config": {} },
          "moving_mean_initializer": { "class_name": "Zeros", "config": {} },
          "moving_variance_initializer": { "class_name": "Ones", "config": {} },
          "beta_regularizer": null,
          "gamma_regularizer": null,
          "beta_constraint": null,
          "gamma_constraint": null
        },
        "name": "bnorm_53",
        "inbound_nodes": [[["conv_53", 0, 0, {}]]]
      },
      {
        "class_name": "LeakyReLU",
        "config": {
          "name": "leaky_53",
          "trainable": true,
          "dtype": "float32",
          "alpha": 0.10000000149011612
        },
        "name": "leaky_53",
        "inbound_nodes": [[["bnorm_53", 0, 0, {}]]]
      },
      {
        "class_name": "Conv2D",
        "config": {
          "name": "conv_54",
          "trainable": true,
          "dtype": "float32",
          "filters": 512,
          "kernel_size": [3, 3],
          "strides": [1, 1],
          "padding": "same",
          "data_format": "channels_last",
          "dilation_rate": [1, 1],
          "groups": 1,
          "activation": "linear",
          "use_bias": false,
          "kernel_initializer": {
            "class_name": "GlorotUniform",
            "config": { "seed": null }
          },
          "bias_initializer": { "class_name": "Zeros", "config": {} },
          "kernel_regularizer": null,
          "bias_regularizer": null,
          "activity_regularizer": null,
          "kernel_constraint": null,
          "bias_constraint": null
        },
        "name": "conv_54",
        "inbound_nodes": [[["leaky_53", 0, 0, {}]]]
      },
      {
        "class_name": "BatchNormalization",
        "config": {
          "name": "bnorm_54",
          "trainable": true,
          "dtype": "float32",
          "axis": [3],
          "momentum": 0.99,
          "epsilon": 0.001,
          "center": true,
          "scale": true,
          "beta_initializer": { "class_name": "Zeros", "config": {} },
          "gamma_initializer": { "class_name": "Ones", "config": {} },
          "moving_mean_initializer": { "class_name": "Zeros", "config": {} },
          "moving_variance_initializer": { "class_name": "Ones", "config": {} },
          "beta_regularizer": null,
          "gamma_regularizer": null,
          "beta_constraint": null,
          "gamma_constraint": null
        },
        "name": "bnorm_54",
        "inbound_nodes": [[["conv_54", 0, 0, {}]]]
      },
      {
        "class_name": "LeakyReLU",
        "config": {
          "name": "leaky_54",
          "trainable": true,
          "dtype": "float32",
          "alpha": 0.10000000149011612
        },
        "name": "leaky_54",
        "inbound_nodes": [[["bnorm_54", 0, 0, {}]]]
      },
      {
        "class_name": "TFOpLambda",
        "config": {
          "name": "tf.__operators__.add_16",
          "trainable": true,
          "dtype": "float32",
          "function": "__operators__.add"
        },
        "name": "tf.__operators__.add_16",
        "inbound_nodes": [
          [
            "leaky_54",
            0,
            0,
            { "y": ["tf.__operators__.add_15", 0, 0], "name": null }
          ]
        ]
      },
      {
        "class_name": "Conv2D",
        "config": {
          "name": "conv_56",
          "trainable": true,
          "dtype": "float32",
          "filters": 256,
          "kernel_size": [1, 1],
          "strides": [1, 1],
          "padding": "same",
          "data_format": "channels_last",
          "dilation_rate": [1, 1],
          "groups": 1,
          "activation": "linear",
          "use_bias": false,
          "kernel_initializer": {
            "class_name": "GlorotUniform",
            "config": { "seed": null }
          },
          "bias_initializer": { "class_name": "Zeros", "config": {} },
          "kernel_regularizer": null,
          "bias_regularizer": null,
          "activity_regularizer": null,
          "kernel_constraint": null,
          "bias_constraint": null
        },
        "name": "conv_56",
        "inbound_nodes": [[["tf.__operators__.add_16", 0, 0, {}]]]
      },
      {
        "class_name": "BatchNormalization",
        "config": {
          "name": "bnorm_56",
          "trainable": true,
          "dtype": "float32",
          "axis": [3],
          "momentum": 0.99,
          "epsilon": 0.001,
          "center": true,
          "scale": true,
          "beta_initializer": { "class_name": "Zeros", "config": {} },
          "gamma_initializer": { "class_name": "Ones", "config": {} },
          "moving_mean_initializer": { "class_name": "Zeros", "config": {} },
          "moving_variance_initializer": { "class_name": "Ones", "config": {} },
          "beta_regularizer": null,
          "gamma_regularizer": null,
          "beta_constraint": null,
          "gamma_constraint": null
        },
        "name": "bnorm_56",
        "inbound_nodes": [[["conv_56", 0, 0, {}]]]
      },
      {
        "class_name": "LeakyReLU",
        "config": {
          "name": "leaky_56",
          "trainable": true,
          "dtype": "float32",
          "alpha": 0.10000000149011612
        },
        "name": "leaky_56",
        "inbound_nodes": [[["bnorm_56", 0, 0, {}]]]
      },
      {
        "class_name": "Conv2D",
        "config": {
          "name": "conv_57",
          "trainable": true,
          "dtype": "float32",
          "filters": 512,
          "kernel_size": [3, 3],
          "strides": [1, 1],
          "padding": "same",
          "data_format": "channels_last",
          "dilation_rate": [1, 1],
          "groups": 1,
          "activation": "linear",
          "use_bias": false,
          "kernel_initializer": {
            "class_name": "GlorotUniform",
            "config": { "seed": null }
          },
          "bias_initializer": { "class_name": "Zeros", "config": {} },
          "kernel_regularizer": null,
          "bias_regularizer": null,
          "activity_regularizer": null,
          "kernel_constraint": null,
          "bias_constraint": null
        },
        "name": "conv_57",
        "inbound_nodes": [[["leaky_56", 0, 0, {}]]]
      },
      {
        "class_name": "BatchNormalization",
        "config": {
          "name": "bnorm_57",
          "trainable": true,
          "dtype": "float32",
          "axis": [3],
          "momentum": 0.99,
          "epsilon": 0.001,
          "center": true,
          "scale": true,
          "beta_initializer": { "class_name": "Zeros", "config": {} },
          "gamma_initializer": { "class_name": "Ones", "config": {} },
          "moving_mean_initializer": { "class_name": "Zeros", "config": {} },
          "moving_variance_initializer": { "class_name": "Ones", "config": {} },
          "beta_regularizer": null,
          "gamma_regularizer": null,
          "beta_constraint": null,
          "gamma_constraint": null
        },
        "name": "bnorm_57",
        "inbound_nodes": [[["conv_57", 0, 0, {}]]]
      },
      {
        "class_name": "LeakyReLU",
        "config": {
          "name": "leaky_57",
          "trainable": true,
          "dtype": "float32",
          "alpha": 0.10000000149011612
        },
        "name": "leaky_57",
        "inbound_nodes": [[["bnorm_57", 0, 0, {}]]]
      },
      {
        "class_name": "TFOpLambda",
        "config": {
          "name": "tf.__operators__.add_17",
          "trainable": true,
          "dtype": "float32",
          "function": "__operators__.add"
        },
        "name": "tf.__operators__.add_17",
        "inbound_nodes": [
          [
            "leaky_57",
            0,
            0,
            { "y": ["tf.__operators__.add_16", 0, 0], "name": null }
          ]
        ]
      },
      {
        "class_name": "Conv2D",
        "config": {
          "name": "conv_59",
          "trainable": true,
          "dtype": "float32",
          "filters": 256,
          "kernel_size": [1, 1],
          "strides": [1, 1],
          "padding": "same",
          "data_format": "channels_last",
          "dilation_rate": [1, 1],
          "groups": 1,
          "activation": "linear",
          "use_bias": false,
          "kernel_initializer": {
            "class_name": "GlorotUniform",
            "config": { "seed": null }
          },
          "bias_initializer": { "class_name": "Zeros", "config": {} },
          "kernel_regularizer": null,
          "bias_regularizer": null,
          "activity_regularizer": null,
          "kernel_constraint": null,
          "bias_constraint": null
        },
        "name": "conv_59",
        "inbound_nodes": [[["tf.__operators__.add_17", 0, 0, {}]]]
      },
      {
        "class_name": "BatchNormalization",
        "config": {
          "name": "bnorm_59",
          "trainable": true,
          "dtype": "float32",
          "axis": [3],
          "momentum": 0.99,
          "epsilon": 0.001,
          "center": true,
          "scale": true,
          "beta_initializer": { "class_name": "Zeros", "config": {} },
          "gamma_initializer": { "class_name": "Ones", "config": {} },
          "moving_mean_initializer": { "class_name": "Zeros", "config": {} },
          "moving_variance_initializer": { "class_name": "Ones", "config": {} },
          "beta_regularizer": null,
          "gamma_regularizer": null,
          "beta_constraint": null,
          "gamma_constraint": null
        },
        "name": "bnorm_59",
        "inbound_nodes": [[["conv_59", 0, 0, {}]]]
      },
      {
        "class_name": "LeakyReLU",
        "config": {
          "name": "leaky_59",
          "trainable": true,
          "dtype": "float32",
          "alpha": 0.10000000149011612
        },
        "name": "leaky_59",
        "inbound_nodes": [[["bnorm_59", 0, 0, {}]]]
      },
      {
        "class_name": "Conv2D",
        "config": {
          "name": "conv_60",
          "trainable": true,
          "dtype": "float32",
          "filters": 512,
          "kernel_size": [3, 3],
          "strides": [1, 1],
          "padding": "same",
          "data_format": "channels_last",
          "dilation_rate": [1, 1],
          "groups": 1,
          "activation": "linear",
          "use_bias": false,
          "kernel_initializer": {
            "class_name": "GlorotUniform",
            "config": { "seed": null }
          },
          "bias_initializer": { "class_name": "Zeros", "config": {} },
          "kernel_regularizer": null,
          "bias_regularizer": null,
          "activity_regularizer": null,
          "kernel_constraint": null,
          "bias_constraint": null
        },
        "name": "conv_60",
        "inbound_nodes": [[["leaky_59", 0, 0, {}]]]
      },
      {
        "class_name": "BatchNormalization",
        "config": {
          "name": "bnorm_60",
          "trainable": true,
          "dtype": "float32",
          "axis": [3],
          "momentum": 0.99,
          "epsilon": 0.001,
          "center": true,
          "scale": true,
          "beta_initializer": { "class_name": "Zeros", "config": {} },
          "gamma_initializer": { "class_name": "Ones", "config": {} },
          "moving_mean_initializer": { "class_name": "Zeros", "config": {} },
          "moving_variance_initializer": { "class_name": "Ones", "config": {} },
          "beta_regularizer": null,
          "gamma_regularizer": null,
          "beta_constraint": null,
          "gamma_constraint": null
        },
        "name": "bnorm_60",
        "inbound_nodes": [[["conv_60", 0, 0, {}]]]
      },
      {
        "class_name": "LeakyReLU",
        "config": {
          "name": "leaky_60",
          "trainable": true,
          "dtype": "float32",
          "alpha": 0.10000000149011612
        },
        "name": "leaky_60",
        "inbound_nodes": [[["bnorm_60", 0, 0, {}]]]
      },
      {
        "class_name": "TFOpLambda",
        "config": {
          "name": "tf.__operators__.add_18",
          "trainable": true,
          "dtype": "float32",
          "function": "__operators__.add"
        },
        "name": "tf.__operators__.add_18",
        "inbound_nodes": [
          [
            "leaky_60",
            0,
            0,
            { "y": ["tf.__operators__.add_17", 0, 0], "name": null }
          ]
        ]
      },
      {
        "class_name": "ZeroPadding2D",
        "config": {
          "name": "zero_padding2d_4",
          "trainable": true,
          "dtype": "float32",
          "padding": [
            [1, 0],
            [1, 0]
          ],
          "data_format": "channels_last"
        },
        "name": "zero_padding2d_4",
        "inbound_nodes": [[["tf.__operators__.add_18", 0, 0, {}]]]
      },
      {
        "class_name": "Conv2D",
        "config": {
          "name": "conv_62",
          "trainable": true,
          "dtype": "float32",
          "filters": 1024,
          "kernel_size": [3, 3],
          "strides": [2, 2],
          "padding": "valid",
          "data_format": "channels_last",
          "dilation_rate": [1, 1],
          "groups": 1,
          "activation": "linear",
          "use_bias": false,
          "kernel_initializer": {
            "class_name": "GlorotUniform",
            "config": { "seed": null }
          },
          "bias_initializer": { "class_name": "Zeros", "config": {} },
          "kernel_regularizer": null,
          "bias_regularizer": null,
          "activity_regularizer": null,
          "kernel_constraint": null,
          "bias_constraint": null
        },
        "name": "conv_62",
        "inbound_nodes": [[["zero_padding2d_4", 0, 0, {}]]]
      },
      {
        "class_name": "BatchNormalization",
        "config": {
          "name": "bnorm_62",
          "trainable": true,
          "dtype": "float32",
          "axis": [3],
          "momentum": 0.99,
          "epsilon": 0.001,
          "center": true,
          "scale": true,
          "beta_initializer": { "class_name": "Zeros", "config": {} },
          "gamma_initializer": { "class_name": "Ones", "config": {} },
          "moving_mean_initializer": { "class_name": "Zeros", "config": {} },
          "moving_variance_initializer": { "class_name": "Ones", "config": {} },
          "beta_regularizer": null,
          "gamma_regularizer": null,
          "beta_constraint": null,
          "gamma_constraint": null
        },
        "name": "bnorm_62",
        "inbound_nodes": [[["conv_62", 0, 0, {}]]]
      },
      {
        "class_name": "LeakyReLU",
        "config": {
          "name": "leaky_62",
          "trainable": true,
          "dtype": "float32",
          "alpha": 0.10000000149011612
        },
        "name": "leaky_62",
        "inbound_nodes": [[["bnorm_62", 0, 0, {}]]]
      },
      {
        "class_name": "Conv2D",
        "config": {
          "name": "conv_63",
          "trainable": true,
          "dtype": "float32",
          "filters": 512,
          "kernel_size": [1, 1],
          "strides": [1, 1],
          "padding": "same",
          "data_format": "channels_last",
          "dilation_rate": [1, 1],
          "groups": 1,
          "activation": "linear",
          "use_bias": false,
          "kernel_initializer": {
            "class_name": "GlorotUniform",
            "config": { "seed": null }
          },
          "bias_initializer": { "class_name": "Zeros", "config": {} },
          "kernel_regularizer": null,
          "bias_regularizer": null,
          "activity_regularizer": null,
          "kernel_constraint": null,
          "bias_constraint": null
        },
        "name": "conv_63",
        "inbound_nodes": [[["leaky_62", 0, 0, {}]]]
      },
      {
        "class_name": "BatchNormalization",
        "config": {
          "name": "bnorm_63",
          "trainable": true,
          "dtype": "float32",
          "axis": [3],
          "momentum": 0.99,
          "epsilon": 0.001,
          "center": true,
          "scale": true,
          "beta_initializer": { "class_name": "Zeros", "config": {} },
          "gamma_initializer": { "class_name": "Ones", "config": {} },
          "moving_mean_initializer": { "class_name": "Zeros", "config": {} },
          "moving_variance_initializer": { "class_name": "Ones", "config": {} },
          "beta_regularizer": null,
          "gamma_regularizer": null,
          "beta_constraint": null,
          "gamma_constraint": null
        },
        "name": "bnorm_63",
        "inbound_nodes": [[["conv_63", 0, 0, {}]]]
      },
      {
        "class_name": "LeakyReLU",
        "config": {
          "name": "leaky_63",
          "trainable": true,
          "dtype": "float32",
          "alpha": 0.10000000149011612
        },
        "name": "leaky_63",
        "inbound_nodes": [[["bnorm_63", 0, 0, {}]]]
      },
      {
        "class_name": "Conv2D",
        "config": {
          "name": "conv_64",
          "trainable": true,
          "dtype": "float32",
          "filters": 1024,
          "kernel_size": [3, 3],
          "strides": [1, 1],
          "padding": "same",
          "data_format": "channels_last",
          "dilation_rate": [1, 1],
          "groups": 1,
          "activation": "linear",
          "use_bias": false,
          "kernel_initializer": {
            "class_name": "GlorotUniform",
            "config": { "seed": null }
          },
          "bias_initializer": { "class_name": "Zeros", "config": {} },
          "kernel_regularizer": null,
          "bias_regularizer": null,
          "activity_regularizer": null,
          "kernel_constraint": null,
          "bias_constraint": null
        },
        "name": "conv_64",
        "inbound_nodes": [[["leaky_63", 0, 0, {}]]]
      },
      {
        "class_name": "BatchNormalization",
        "config": {
          "name": "bnorm_64",
          "trainable": true,
          "dtype": "float32",
          "axis": [3],
          "momentum": 0.99,
          "epsilon": 0.001,
          "center": true,
          "scale": true,
          "beta_initializer": { "class_name": "Zeros", "config": {} },
          "gamma_initializer": { "class_name": "Ones", "config": {} },
          "moving_mean_initializer": { "class_name": "Zeros", "config": {} },
          "moving_variance_initializer": { "class_name": "Ones", "config": {} },
          "beta_regularizer": null,
          "gamma_regularizer": null,
          "beta_constraint": null,
          "gamma_constraint": null
        },
        "name": "bnorm_64",
        "inbound_nodes": [[["conv_64", 0, 0, {}]]]
      },
      {
        "class_name": "LeakyReLU",
        "config": {
          "name": "leaky_64",
          "trainable": true,
          "dtype": "float32",
          "alpha": 0.10000000149011612
        },
        "name": "leaky_64",
        "inbound_nodes": [[["bnorm_64", 0, 0, {}]]]
      },
      {
        "class_name": "TFOpLambda",
        "config": {
          "name": "tf.__operators__.add_19",
          "trainable": true,
          "dtype": "float32",
          "function": "__operators__.add"
        },
        "name": "tf.__operators__.add_19",
        "inbound_nodes": [
          ["leaky_64", 0, 0, { "y": ["leaky_62", 0, 0], "name": null }]
        ]
      },
      {
        "class_name": "Conv2D",
        "config": {
          "name": "conv_66",
          "trainable": true,
          "dtype": "float32",
          "filters": 512,
          "kernel_size": [1, 1],
          "strides": [1, 1],
          "padding": "same",
          "data_format": "channels_last",
          "dilation_rate": [1, 1],
          "groups": 1,
          "activation": "linear",
          "use_bias": false,
          "kernel_initializer": {
            "class_name": "GlorotUniform",
            "config": { "seed": null }
          },
          "bias_initializer": { "class_name": "Zeros", "config": {} },
          "kernel_regularizer": null,
          "bias_regularizer": null,
          "activity_regularizer": null,
          "kernel_constraint": null,
          "bias_constraint": null
        },
        "name": "conv_66",
        "inbound_nodes": [[["tf.__operators__.add_19", 0, 0, {}]]]
      },
      {
        "class_name": "BatchNormalization",
        "config": {
          "name": "bnorm_66",
          "trainable": true,
          "dtype": "float32",
          "axis": [3],
          "momentum": 0.99,
          "epsilon": 0.001,
          "center": true,
          "scale": true,
          "beta_initializer": { "class_name": "Zeros", "config": {} },
          "gamma_initializer": { "class_name": "Ones", "config": {} },
          "moving_mean_initializer": { "class_name": "Zeros", "config": {} },
          "moving_variance_initializer": { "class_name": "Ones", "config": {} },
          "beta_regularizer": null,
          "gamma_regularizer": null,
          "beta_constraint": null,
          "gamma_constraint": null
        },
        "name": "bnorm_66",
        "inbound_nodes": [[["conv_66", 0, 0, {}]]]
      },
      {
        "class_name": "LeakyReLU",
        "config": {
          "name": "leaky_66",
          "trainable": true,
          "dtype": "float32",
          "alpha": 0.10000000149011612
        },
        "name": "leaky_66",
        "inbound_nodes": [[["bnorm_66", 0, 0, {}]]]
      },
      {
        "class_name": "Conv2D",
        "config": {
          "name": "conv_67",
          "trainable": true,
          "dtype": "float32",
          "filters": 1024,
          "kernel_size": [3, 3],
          "strides": [1, 1],
          "padding": "same",
          "data_format": "channels_last",
          "dilation_rate": [1, 1],
          "groups": 1,
          "activation": "linear",
          "use_bias": false,
          "kernel_initializer": {
            "class_name": "GlorotUniform",
            "config": { "seed": null }
          },
          "bias_initializer": { "class_name": "Zeros", "config": {} },
          "kernel_regularizer": null,
          "bias_regularizer": null,
          "activity_regularizer": null,
          "kernel_constraint": null,
          "bias_constraint": null
        },
        "name": "conv_67",
        "inbound_nodes": [[["leaky_66", 0, 0, {}]]]
      },
      {
        "class_name": "BatchNormalization",
        "config": {
          "name": "bnorm_67",
          "trainable": true,
          "dtype": "float32",
          "axis": [3],
          "momentum": 0.99,
          "epsilon": 0.001,
          "center": true,
          "scale": true,
          "beta_initializer": { "class_name": "Zeros", "config": {} },
          "gamma_initializer": { "class_name": "Ones", "config": {} },
          "moving_mean_initializer": { "class_name": "Zeros", "config": {} },
          "moving_variance_initializer": { "class_name": "Ones", "config": {} },
          "beta_regularizer": null,
          "gamma_regularizer": null,
          "beta_constraint": null,
          "gamma_constraint": null
        },
        "name": "bnorm_67",
        "inbound_nodes": [[["conv_67", 0, 0, {}]]]
      },
      {
        "class_name": "LeakyReLU",
        "config": {
          "name": "leaky_67",
          "trainable": true,
          "dtype": "float32",
          "alpha": 0.10000000149011612
        },
        "name": "leaky_67",
        "inbound_nodes": [[["bnorm_67", 0, 0, {}]]]
      },
      {
        "class_name": "TFOpLambda",
        "config": {
          "name": "tf.__operators__.add_20",
          "trainable": true,
          "dtype": "float32",
          "function": "__operators__.add"
        },
        "name": "tf.__operators__.add_20",
        "inbound_nodes": [
          [
            "leaky_67",
            0,
            0,
            { "y": ["tf.__operators__.add_19", 0, 0], "name": null }
          ]
        ]
      },
      {
        "class_name": "Conv2D",
        "config": {
          "name": "conv_69",
          "trainable": true,
          "dtype": "float32",
          "filters": 512,
          "kernel_size": [1, 1],
          "strides": [1, 1],
          "padding": "same",
          "data_format": "channels_last",
          "dilation_rate": [1, 1],
          "groups": 1,
          "activation": "linear",
          "use_bias": false,
          "kernel_initializer": {
            "class_name": "GlorotUniform",
            "config": { "seed": null }
          },
          "bias_initializer": { "class_name": "Zeros", "config": {} },
          "kernel_regularizer": null,
          "bias_regularizer": null,
          "activity_regularizer": null,
          "kernel_constraint": null,
          "bias_constraint": null
        },
        "name": "conv_69",
        "inbound_nodes": [[["tf.__operators__.add_20", 0, 0, {}]]]
      },
      {
        "class_name": "BatchNormalization",
        "config": {
          "name": "bnorm_69",
          "trainable": true,
          "dtype": "float32",
          "axis": [3],
          "momentum": 0.99,
          "epsilon": 0.001,
          "center": true,
          "scale": true,
          "beta_initializer": { "class_name": "Zeros", "config": {} },
          "gamma_initializer": { "class_name": "Ones", "config": {} },
          "moving_mean_initializer": { "class_name": "Zeros", "config": {} },
          "moving_variance_initializer": { "class_name": "Ones", "config": {} },
          "beta_regularizer": null,
          "gamma_regularizer": null,
          "beta_constraint": null,
          "gamma_constraint": null
        },
        "name": "bnorm_69",
        "inbound_nodes": [[["conv_69", 0, 0, {}]]]
      },
      {
        "class_name": "LeakyReLU",
        "config": {
          "name": "leaky_69",
          "trainable": true,
          "dtype": "float32",
          "alpha": 0.10000000149011612
        },
        "name": "leaky_69",
        "inbound_nodes": [[["bnorm_69", 0, 0, {}]]]
      },
      {
        "class_name": "Conv2D",
        "config": {
          "name": "conv_70",
          "trainable": true,
          "dtype": "float32",
          "filters": 1024,
          "kernel_size": [3, 3],
          "strides": [1, 1],
          "padding": "same",
          "data_format": "channels_last",
          "dilation_rate": [1, 1],
          "groups": 1,
          "activation": "linear",
          "use_bias": false,
          "kernel_initializer": {
            "class_name": "GlorotUniform",
            "config": { "seed": null }
          },
          "bias_initializer": { "class_name": "Zeros", "config": {} },
          "kernel_regularizer": null,
          "bias_regularizer": null,
          "activity_regularizer": null,
          "kernel_constraint": null,
          "bias_constraint": null
        },
        "name": "conv_70",
        "inbound_nodes": [[["leaky_69", 0, 0, {}]]]
      },
      {
        "class_name": "BatchNormalization",
        "config": {
          "name": "bnorm_70",
          "trainable": true,
          "dtype": "float32",
          "axis": [3],
          "momentum": 0.99,
          "epsilon": 0.001,
          "center": true,
          "scale": true,
          "beta_initializer": { "class_name": "Zeros", "config": {} },
          "gamma_initializer": { "class_name": "Ones", "config": {} },
          "moving_mean_initializer": { "class_name": "Zeros", "config": {} },
          "moving_variance_initializer": { "class_name": "Ones", "config": {} },
          "beta_regularizer": null,
          "gamma_regularizer": null,
          "beta_constraint": null,
          "gamma_constraint": null
        },
        "name": "bnorm_70",
        "inbound_nodes": [[["conv_70", 0, 0, {}]]]
      },
      {
        "class_name": "LeakyReLU",
        "config": {
          "name": "leaky_70",
          "trainable": true,
          "dtype": "float32",
          "alpha": 0.10000000149011612
        },
        "name": "leaky_70",
        "inbound_nodes": [[["bnorm_70", 0, 0, {}]]]
      },
      {
        "class_name": "TFOpLambda",
        "config": {
          "name": "tf.__operators__.add_21",
          "trainable": true,
          "dtype": "float32",
          "function": "__operators__.add"
        },
        "name": "tf.__operators__.add_21",
        "inbound_nodes": [
          [
            "leaky_70",
            0,
            0,
            { "y": ["tf.__operators__.add_20", 0, 0], "name": null }
          ]
        ]
      },
      {
        "class_name": "Conv2D",
        "config": {
          "name": "conv_72",
          "trainable": true,
          "dtype": "float32",
          "filters": 512,
          "kernel_size": [1, 1],
          "strides": [1, 1],
          "padding": "same",
          "data_format": "channels_last",
          "dilation_rate": [1, 1],
          "groups": 1,
          "activation": "linear",
          "use_bias": false,
          "kernel_initializer": {
            "class_name": "GlorotUniform",
            "config": { "seed": null }
          },
          "bias_initializer": { "class_name": "Zeros", "config": {} },
          "kernel_regularizer": null,
          "bias_regularizer": null,
          "activity_regularizer": null,
          "kernel_constraint": null,
          "bias_constraint": null
        },
        "name": "conv_72",
        "inbound_nodes": [[["tf.__operators__.add_21", 0, 0, {}]]]
      },
      {
        "class_name": "BatchNormalization",
        "config": {
          "name": "bnorm_72",
          "trainable": true,
          "dtype": "float32",
          "axis": [3],
          "momentum": 0.99,
          "epsilon": 0.001,
          "center": true,
          "scale": true,
          "beta_initializer": { "class_name": "Zeros", "config": {} },
          "gamma_initializer": { "class_name": "Ones", "config": {} },
          "moving_mean_initializer": { "class_name": "Zeros", "config": {} },
          "moving_variance_initializer": { "class_name": "Ones", "config": {} },
          "beta_regularizer": null,
          "gamma_regularizer": null,
          "beta_constraint": null,
          "gamma_constraint": null
        },
        "name": "bnorm_72",
        "inbound_nodes": [[["conv_72", 0, 0, {}]]]
      },
      {
        "class_name": "LeakyReLU",
        "config": {
          "name": "leaky_72",
          "trainable": true,
          "dtype": "float32",
          "alpha": 0.10000000149011612
        },
        "name": "leaky_72",
        "inbound_nodes": [[["bnorm_72", 0, 0, {}]]]
      },
      {
        "class_name": "Conv2D",
        "config": {
          "name": "conv_73",
          "trainable": true,
          "dtype": "float32",
          "filters": 1024,
          "kernel_size": [3, 3],
          "strides": [1, 1],
          "padding": "same",
          "data_format": "channels_last",
          "dilation_rate": [1, 1],
          "groups": 1,
          "activation": "linear",
          "use_bias": false,
          "kernel_initializer": {
            "class_name": "GlorotUniform",
            "config": { "seed": null }
          },
          "bias_initializer": { "class_name": "Zeros", "config": {} },
          "kernel_regularizer": null,
          "bias_regularizer": null,
          "activity_regularizer": null,
          "kernel_constraint": null,
          "bias_constraint": null
        },
        "name": "conv_73",
        "inbound_nodes": [[["leaky_72", 0, 0, {}]]]
      },
      {
        "class_name": "BatchNormalization",
        "config": {
          "name": "bnorm_73",
          "trainable": true,
          "dtype": "float32",
          "axis": [3],
          "momentum": 0.99,
          "epsilon": 0.001,
          "center": true,
          "scale": true,
          "beta_initializer": { "class_name": "Zeros", "config": {} },
          "gamma_initializer": { "class_name": "Ones", "config": {} },
          "moving_mean_initializer": { "class_name": "Zeros", "config": {} },
          "moving_variance_initializer": { "class_name": "Ones", "config": {} },
          "beta_regularizer": null,
          "gamma_regularizer": null,
          "beta_constraint": null,
          "gamma_constraint": null
        },
        "name": "bnorm_73",
        "inbound_nodes": [[["conv_73", 0, 0, {}]]]
      },
      {
        "class_name": "LeakyReLU",
        "config": {
          "name": "leaky_73",
          "trainable": true,
          "dtype": "float32",
          "alpha": 0.10000000149011612
        },
        "name": "leaky_73",
        "inbound_nodes": [[["bnorm_73", 0, 0, {}]]]
      },
      {
        "class_name": "TFOpLambda",
        "config": {
          "name": "tf.__operators__.add_22",
          "trainable": true,
          "dtype": "float32",
          "function": "__operators__.add"
        },
        "name": "tf.__operators__.add_22",
        "inbound_nodes": [
          [
            "leaky_73",
            0,
            0,
            { "y": ["tf.__operators__.add_21", 0, 0], "name": null }
          ]
        ]
      },
      {
        "class_name": "Conv2D",
        "config": {
          "name": "conv_75",
          "trainable": true,
          "dtype": "float32",
          "filters": 512,
          "kernel_size": [1, 1],
          "strides": [1, 1],
          "padding": "same",
          "data_format": "channels_last",
          "dilation_rate": [1, 1],
          "groups": 1,
          "activation": "linear",
          "use_bias": false,
          "kernel_initializer": {
            "class_name": "GlorotUniform",
            "config": { "seed": null }
          },
          "bias_initializer": { "class_name": "Zeros", "config": {} },
          "kernel_regularizer": null,
          "bias_regularizer": null,
          "activity_regularizer": null,
          "kernel_constraint": null,
          "bias_constraint": null
        },
        "name": "conv_75",
        "inbound_nodes": [[["tf.__operators__.add_22", 0, 0, {}]]]
      },
      {
        "class_name": "BatchNormalization",
        "config": {
          "name": "bnorm_75",
          "trainable": true,
          "dtype": "float32",
          "axis": [3],
          "momentum": 0.99,
          "epsilon": 0.001,
          "center": true,
          "scale": true,
          "beta_initializer": { "class_name": "Zeros", "config": {} },
          "gamma_initializer": { "class_name": "Ones", "config": {} },
          "moving_mean_initializer": { "class_name": "Zeros", "config": {} },
          "moving_variance_initializer": { "class_name": "Ones", "config": {} },
          "beta_regularizer": null,
          "gamma_regularizer": null,
          "beta_constraint": null,
          "gamma_constraint": null
        },
        "name": "bnorm_75",
        "inbound_nodes": [[["conv_75", 0, 0, {}]]]
      },
      {
        "class_name": "LeakyReLU",
        "config": {
          "name": "leaky_75",
          "trainable": true,
          "dtype": "float32",
          "alpha": 0.10000000149011612
        },
        "name": "leaky_75",
        "inbound_nodes": [[["bnorm_75", 0, 0, {}]]]
      },
      {
        "class_name": "Conv2D",
        "config": {
          "name": "conv_76",
          "trainable": true,
          "dtype": "float32",
          "filters": 1024,
          "kernel_size": [3, 3],
          "strides": [1, 1],
          "padding": "same",
          "data_format": "channels_last",
          "dilation_rate": [1, 1],
          "groups": 1,
          "activation": "linear",
          "use_bias": false,
          "kernel_initializer": {
            "class_name": "GlorotUniform",
            "config": { "seed": null }
          },
          "bias_initializer": { "class_name": "Zeros", "config": {} },
          "kernel_regularizer": null,
          "bias_regularizer": null,
          "activity_regularizer": null,
          "kernel_constraint": null,
          "bias_constraint": null
        },
        "name": "conv_76",
        "inbound_nodes": [[["leaky_75", 0, 0, {}]]]
      },
      {
        "class_name": "BatchNormalization",
        "config": {
          "name": "bnorm_76",
          "trainable": true,
          "dtype": "float32",
          "axis": [3],
          "momentum": 0.99,
          "epsilon": 0.001,
          "center": true,
          "scale": true,
          "beta_initializer": { "class_name": "Zeros", "config": {} },
          "gamma_initializer": { "class_name": "Ones", "config": {} },
          "moving_mean_initializer": { "class_name": "Zeros", "config": {} },
          "moving_variance_initializer": { "class_name": "Ones", "config": {} },
          "beta_regularizer": null,
          "gamma_regularizer": null,
          "beta_constraint": null,
          "gamma_constraint": null
        },
        "name": "bnorm_76",
        "inbound_nodes": [[["conv_76", 0, 0, {}]]]
      },
      {
        "class_name": "LeakyReLU",
        "config": {
          "name": "leaky_76",
          "trainable": true,
          "dtype": "float32",
          "alpha": 0.10000000149011612
        },
        "name": "leaky_76",
        "inbound_nodes": [[["bnorm_76", 0, 0, {}]]]
      },
      {
        "class_name": "Conv2D",
        "config": {
          "name": "conv_77",
          "trainable": true,
          "dtype": "float32",
          "filters": 512,
          "kernel_size": [1, 1],
          "strides": [1, 1],
          "padding": "same",
          "data_format": "channels_last",
          "dilation_rate": [1, 1],
          "groups": 1,
          "activation": "linear",
          "use_bias": false,
          "kernel_initializer": {
            "class_name": "GlorotUniform",
            "config": { "seed": null }
          },
          "bias_initializer": { "class_name": "Zeros", "config": {} },
          "kernel_regularizer": null,
          "bias_regularizer": null,
          "activity_regularizer": null,
          "kernel_constraint": null,
          "bias_constraint": null
        },
        "name": "conv_77",
        "inbound_nodes": [[["leaky_76", 0, 0, {}]]]
      },
      {
        "class_name": "BatchNormalization",
        "config": {
          "name": "bnorm_77",
          "trainable": true,
          "dtype": "float32",
          "axis": [3],
          "momentum": 0.99,
          "epsilon": 0.001,
          "center": true,
          "scale": true,
          "beta_initializer": { "class_name": "Zeros", "config": {} },
          "gamma_initializer": { "class_name": "Ones", "config": {} },
          "moving_mean_initializer": { "class_name": "Zeros", "config": {} },
          "moving_variance_initializer": { "class_name": "Ones", "config": {} },
          "beta_regularizer": null,
          "gamma_regularizer": null,
          "beta_constraint": null,
          "gamma_constraint": null
        },
        "name": "bnorm_77",
        "inbound_nodes": [[["conv_77", 0, 0, {}]]]
      },
      {
        "class_name": "LeakyReLU",
        "config": {
          "name": "leaky_77",
          "trainable": true,
          "dtype": "float32",
          "alpha": 0.10000000149011612
        },
        "name": "leaky_77",
        "inbound_nodes": [[["bnorm_77", 0, 0, {}]]]
      },
      {
        "class_name": "Conv2D",
        "config": {
          "name": "conv_78",
          "trainable": true,
          "dtype": "float32",
          "filters": 1024,
          "kernel_size": [3, 3],
          "strides": [1, 1],
          "padding": "same",
          "data_format": "channels_last",
          "dilation_rate": [1, 1],
          "groups": 1,
          "activation": "linear",
          "use_bias": false,
          "kernel_initializer": {
            "class_name": "GlorotUniform",
            "config": { "seed": null }
          },
          "bias_initializer": { "class_name": "Zeros", "config": {} },
          "kernel_regularizer": null,
          "bias_regularizer": null,
          "activity_regularizer": null,
          "kernel_constraint": null,
          "bias_constraint": null
        },
        "name": "conv_78",
        "inbound_nodes": [[["leaky_77", 0, 0, {}]]]
      },
      {
        "class_name": "BatchNormalization",
        "config": {
          "name": "bnorm_78",
          "trainable": true,
          "dtype": "float32",
          "axis": [3],
          "momentum": 0.99,
          "epsilon": 0.001,
          "center": true,
          "scale": true,
          "beta_initializer": { "class_name": "Zeros", "config": {} },
          "gamma_initializer": { "class_name": "Ones", "config": {} },
          "moving_mean_initializer": { "class_name": "Zeros", "config": {} },
          "moving_variance_initializer": { "class_name": "Ones", "config": {} },
          "beta_regularizer": null,
          "gamma_regularizer": null,
          "beta_constraint": null,
          "gamma_constraint": null
        },
        "name": "bnorm_78",
        "inbound_nodes": [[["conv_78", 0, 0, {}]]]
      },
      {
        "class_name": "LeakyReLU",
        "config": {
          "name": "leaky_78",
          "trainable": true,
          "dtype": "float32",
          "alpha": 0.10000000149011612
        },
        "name": "leaky_78",
        "inbound_nodes": [[["bnorm_78", 0, 0, {}]]]
      },
      {
        "class_name": "Conv2D",
        "config": {
          "name": "conv_79",
          "trainable": true,
          "dtype": "float32",
          "filters": 512,
          "kernel_size": [1, 1],
          "strides": [1, 1],
          "padding": "same",
          "data_format": "channels_last",
          "dilation_rate": [1, 1],
          "groups": 1,
          "activation": "linear",
          "use_bias": false,
          "kernel_initializer": {
            "class_name": "GlorotUniform",
            "config": { "seed": null }
          },
          "bias_initializer": { "class_name": "Zeros", "config": {} },
          "kernel_regularizer": null,
          "bias_regularizer": null,
          "activity_regularizer": null,
          "kernel_constraint": null,
          "bias_constraint": null
        },
        "name": "conv_79",
        "inbound_nodes": [[["leaky_78", 0, 0, {}]]]
      },
      {
        "class_name": "BatchNormalization",
        "config": {
          "name": "bnorm_79",
          "trainable": true,
          "dtype": "float32",
          "axis": [3],
          "momentum": 0.99,
          "epsilon": 0.001,
          "center": true,
          "scale": true,
          "beta_initializer": { "class_name": "Zeros", "config": {} },
          "gamma_initializer": { "class_name": "Ones", "config": {} },
          "moving_mean_initializer": { "class_name": "Zeros", "config": {} },
          "moving_variance_initializer": { "class_name": "Ones", "config": {} },
          "beta_regularizer": null,
          "gamma_regularizer": null,
          "beta_constraint": null,
          "gamma_constraint": null
        },
        "name": "bnorm_79",
        "inbound_nodes": [[["conv_79", 0, 0, {}]]]
      },
      {
        "class_name": "LeakyReLU",
        "config": {
          "name": "leaky_79",
          "trainable": true,
          "dtype": "float32",
          "alpha": 0.10000000149011612
        },
        "name": "leaky_79",
        "inbound_nodes": [[["bnorm_79", 0, 0, {}]]]
      },
      {
        "class_name": "Conv2D",
        "config": {
          "name": "conv_84",
          "trainable": true,
          "dtype": "float32",
          "filters": 256,
          "kernel_size": [1, 1],
          "strides": [1, 1],
          "padding": "same",
          "data_format": "channels_last",
          "dilation_rate": [1, 1],
          "groups": 1,
          "activation": "linear",
          "use_bias": false,
          "kernel_initializer": {
            "class_name": "GlorotUniform",
            "config": { "seed": null }
          },
          "bias_initializer": { "class_name": "Zeros", "config": {} },
          "kernel_regularizer": null,
          "bias_regularizer": null,
          "activity_regularizer": null,
          "kernel_constraint": null,
          "bias_constraint": null
        },
        "name": "conv_84",
        "inbound_nodes": [[["leaky_79", 0, 0, {}]]]
      },
      {
        "class_name": "BatchNormalization",
        "config": {
          "name": "bnorm_84",
          "trainable": true,
          "dtype": "float32",
          "axis": [3],
          "momentum": 0.99,
          "epsilon": 0.001,
          "center": true,
          "scale": true,
          "beta_initializer": { "class_name": "Zeros", "config": {} },
          "gamma_initializer": { "class_name": "Ones", "config": {} },
          "moving_mean_initializer": { "class_name": "Zeros", "config": {} },
          "moving_variance_initializer": { "class_name": "Ones", "config": {} },
          "beta_regularizer": null,
          "gamma_regularizer": null,
          "beta_constraint": null,
          "gamma_constraint": null
        },
        "name": "bnorm_84",
        "inbound_nodes": [[["conv_84", 0, 0, {}]]]
      },
      {
        "class_name": "LeakyReLU",
        "config": {
          "name": "leaky_84",
          "trainable": true,
          "dtype": "float32",
          "alpha": 0.10000000149011612
        },
        "name": "leaky_84",
        "inbound_nodes": [[["bnorm_84", 0, 0, {}]]]
      },
      {
        "class_name": "UpSampling2D",
        "config": {
          "name": "up_sampling2d",
          "trainable": true,
          "dtype": "float32",
          "size": [2, 2],
          "data_format": "channels_last",
          "interpolation": "nearest"
        },
        "name": "up_sampling2d",
        "inbound_nodes": [[["leaky_84", 0, 0, {}]]]
      },
      {
        "class_name": "TFOpLambda",
        "config": {
          "name": "tf.concat_1",
          "trainable": true,
          "dtype": "float32",
          "function": "concat"
        },
        "name": "tf.concat_1",
        "inbound_nodes": [
          [
            ["up_sampling2d", 0, 0, { "axis": -1 }],
            ["tf.__operators__.add_18", 0, 0, { "axis": -1 }]
          ]
        ]
      },
      {
        "class_name": "Conv2D",
        "config": {
          "name": "conv_87",
          "trainable": true,
          "dtype": "float32",
          "filters": 256,
          "kernel_size": [1, 1],
          "strides": [1, 1],
          "padding": "same",
          "data_format": "channels_last",
          "dilation_rate": [1, 1],
          "groups": 1,
          "activation": "linear",
          "use_bias": false,
          "kernel_initializer": {
            "class_name": "GlorotUniform",
            "config": { "seed": null }
          },
          "bias_initializer": { "class_name": "Zeros", "config": {} },
          "kernel_regularizer": null,
          "bias_regularizer": null,
          "activity_regularizer": null,
          "kernel_constraint": null,
          "bias_constraint": null
        },
        "name": "conv_87",
        "inbound_nodes": [[["tf.concat_1", 0, 0, {}]]]
      },
      {
        "class_name": "BatchNormalization",
        "config": {
          "name": "bnorm_87",
          "trainable": true,
          "dtype": "float32",
          "axis": [3],
          "momentum": 0.99,
          "epsilon": 0.001,
          "center": true,
          "scale": true,
          "beta_initializer": { "class_name": "Zeros", "config": {} },
          "gamma_initializer": { "class_name": "Ones", "config": {} },
          "moving_mean_initializer": { "class_name": "Zeros", "config": {} },
          "moving_variance_initializer": { "class_name": "Ones", "config": {} },
          "beta_regularizer": null,
          "gamma_regularizer": null,
          "beta_constraint": null,
          "gamma_constraint": null
        },
        "name": "bnorm_87",
        "inbound_nodes": [[["conv_87", 0, 0, {}]]]
      },
      {
        "class_name": "LeakyReLU",
        "config": {
          "name": "leaky_87",
          "trainable": true,
          "dtype": "float32",
          "alpha": 0.10000000149011612
        },
        "name": "leaky_87",
        "inbound_nodes": [[["bnorm_87", 0, 0, {}]]]
      },
      {
        "class_name": "Conv2D",
        "config": {
          "name": "conv_88",
          "trainable": true,
          "dtype": "float32",
          "filters": 512,
          "kernel_size": [3, 3],
          "strides": [1, 1],
          "padding": "same",
          "data_format": "channels_last",
          "dilation_rate": [1, 1],
          "groups": 1,
          "activation": "linear",
          "use_bias": false,
          "kernel_initializer": {
            "class_name": "GlorotUniform",
            "config": { "seed": null }
          },
          "bias_initializer": { "class_name": "Zeros", "config": {} },
          "kernel_regularizer": null,
          "bias_regularizer": null,
          "activity_regularizer": null,
          "kernel_constraint": null,
          "bias_constraint": null
        },
        "name": "conv_88",
        "inbound_nodes": [[["leaky_87", 0, 0, {}]]]
      },
      {
        "class_name": "BatchNormalization",
        "config": {
          "name": "bnorm_88",
          "trainable": true,
          "dtype": "float32",
          "axis": [3],
          "momentum": 0.99,
          "epsilon": 0.001,
          "center": true,
          "scale": true,
          "beta_initializer": { "class_name": "Zeros", "config": {} },
          "gamma_initializer": { "class_name": "Ones", "config": {} },
          "moving_mean_initializer": { "class_name": "Zeros", "config": {} },
          "moving_variance_initializer": { "class_name": "Ones", "config": {} },
          "beta_regularizer": null,
          "gamma_regularizer": null,
          "beta_constraint": null,
          "gamma_constraint": null
        },
        "name": "bnorm_88",
        "inbound_nodes": [[["conv_88", 0, 0, {}]]]
      },
      {
        "class_name": "LeakyReLU",
        "config": {
          "name": "leaky_88",
          "trainable": true,
          "dtype": "float32",
          "alpha": 0.10000000149011612
        },
        "name": "leaky_88",
        "inbound_nodes": [[["bnorm_88", 0, 0, {}]]]
      },
      {
        "class_name": "Conv2D",
        "config": {
          "name": "conv_89",
          "trainable": true,
          "dtype": "float32",
          "filters": 256,
          "kernel_size": [1, 1],
          "strides": [1, 1],
          "padding": "same",
          "data_format": "channels_last",
          "dilation_rate": [1, 1],
          "groups": 1,
          "activation": "linear",
          "use_bias": false,
          "kernel_initializer": {
            "class_name": "GlorotUniform",
            "config": { "seed": null }
          },
          "bias_initializer": { "class_name": "Zeros", "config": {} },
          "kernel_regularizer": null,
          "bias_regularizer": null,
          "activity_regularizer": null,
          "kernel_constraint": null,
          "bias_constraint": null
        },
        "name": "conv_89",
        "inbound_nodes": [[["leaky_88", 0, 0, {}]]]
      },
      {
        "class_name": "BatchNormalization",
        "config": {
          "name": "bnorm_89",
          "trainable": true,
          "dtype": "float32",
          "axis": [3],
          "momentum": 0.99,
          "epsilon": 0.001,
          "center": true,
          "scale": true,
          "beta_initializer": { "class_name": "Zeros", "config": {} },
          "gamma_initializer": { "class_name": "Ones", "config": {} },
          "moving_mean_initializer": { "class_name": "Zeros", "config": {} },
          "moving_variance_initializer": { "class_name": "Ones", "config": {} },
          "beta_regularizer": null,
          "gamma_regularizer": null,
          "beta_constraint": null,
          "gamma_constraint": null
        },
        "name": "bnorm_89",
        "inbound_nodes": [[["conv_89", 0, 0, {}]]]
      },
      {
        "class_name": "LeakyReLU",
        "config": {
          "name": "leaky_89",
          "trainable": true,
          "dtype": "float32",
          "alpha": 0.10000000149011612
        },
        "name": "leaky_89",
        "inbound_nodes": [[["bnorm_89", 0, 0, {}]]]
      },
      {
        "class_name": "Conv2D",
        "config": {
          "name": "conv_90",
          "trainable": true,
          "dtype": "float32",
          "filters": 512,
          "kernel_size": [3, 3],
          "strides": [1, 1],
          "padding": "same",
          "data_format": "channels_last",
          "dilation_rate": [1, 1],
          "groups": 1,
          "activation": "linear",
          "use_bias": false,
          "kernel_initializer": {
            "class_name": "GlorotUniform",
            "config": { "seed": null }
          },
          "bias_initializer": { "class_name": "Zeros", "config": {} },
          "kernel_regularizer": null,
          "bias_regularizer": null,
          "activity_regularizer": null,
          "kernel_constraint": null,
          "bias_constraint": null
        },
        "name": "conv_90",
        "inbound_nodes": [[["leaky_89", 0, 0, {}]]]
      },
      {
        "class_name": "BatchNormalization",
        "config": {
          "name": "bnorm_90",
          "trainable": true,
          "dtype": "float32",
          "axis": [3],
          "momentum": 0.99,
          "epsilon": 0.001,
          "center": true,
          "scale": true,
          "beta_initializer": { "class_name": "Zeros", "config": {} },
          "gamma_initializer": { "class_name": "Ones", "config": {} },
          "moving_mean_initializer": { "class_name": "Zeros", "config": {} },
          "moving_variance_initializer": { "class_name": "Ones", "config": {} },
          "beta_regularizer": null,
          "gamma_regularizer": null,
          "beta_constraint": null,
          "gamma_constraint": null
        },
        "name": "bnorm_90",
        "inbound_nodes": [[["conv_90", 0, 0, {}]]]
      },
      {
        "class_name": "LeakyReLU",
        "config": {
          "name": "leaky_90",
          "trainable": true,
          "dtype": "float32",
          "alpha": 0.10000000149011612
        },
        "name": "leaky_90",
        "inbound_nodes": [[["bnorm_90", 0, 0, {}]]]
      },
      {
        "class_name": "Conv2D",
        "config": {
          "name": "conv_91",
          "trainable": true,
          "dtype": "float32",
          "filters": 256,
          "kernel_size": [1, 1],
          "strides": [1, 1],
          "padding": "same",
          "data_format": "channels_last",
          "dilation_rate": [1, 1],
          "groups": 1,
          "activation": "linear",
          "use_bias": false,
          "kernel_initializer": {
            "class_name": "GlorotUniform",
            "config": { "seed": null }
          },
          "bias_initializer": { "class_name": "Zeros", "config": {} },
          "kernel_regularizer": null,
          "bias_regularizer": null,
          "activity_regularizer": null,
          "kernel_constraint": null,
          "bias_constraint": null
        },
        "name": "conv_91",
        "inbound_nodes": [[["leaky_90", 0, 0, {}]]]
      },
      {
        "class_name": "BatchNormalization",
        "config": {
          "name": "bnorm_91",
          "trainable": true,
          "dtype": "float32",
          "axis": [3],
          "momentum": 0.99,
          "epsilon": 0.001,
          "center": true,
          "scale": true,
          "beta_initializer": { "class_name": "Zeros", "config": {} },
          "gamma_initializer": { "class_name": "Ones", "config": {} },
          "moving_mean_initializer": { "class_name": "Zeros", "config": {} },
          "moving_variance_initializer": { "class_name": "Ones", "config": {} },
          "beta_regularizer": null,
          "gamma_regularizer": null,
          "beta_constraint": null,
          "gamma_constraint": null
        },
        "name": "bnorm_91",
        "inbound_nodes": [[["conv_91", 0, 0, {}]]]
      },
      {
        "class_name": "LeakyReLU",
        "config": {
          "name": "leaky_91",
          "trainable": true,
          "dtype": "float32",
          "alpha": 0.10000000149011612
        },
        "name": "leaky_91",
        "inbound_nodes": [[["bnorm_91", 0, 0, {}]]]
      },
      {
        "class_name": "Conv2D",
        "config": {
          "name": "conv_96",
          "trainable": true,
          "dtype": "float32",
          "filters": 128,
          "kernel_size": [1, 1],
          "strides": [1, 1],
          "padding": "same",
          "data_format": "channels_last",
          "dilation_rate": [1, 1],
          "groups": 1,
          "activation": "linear",
          "use_bias": false,
          "kernel_initializer": {
            "class_name": "GlorotUniform",
            "config": { "seed": null }
          },
          "bias_initializer": { "class_name": "Zeros", "config": {} },
          "kernel_regularizer": null,
          "bias_regularizer": null,
          "activity_regularizer": null,
          "kernel_constraint": null,
          "bias_constraint": null
        },
        "name": "conv_96",
        "inbound_nodes": [[["leaky_91", 0, 0, {}]]]
      },
      {
        "class_name": "BatchNormalization",
        "config": {
          "name": "bnorm_96",
          "trainable": true,
          "dtype": "float32",
          "axis": [3],
          "momentum": 0.99,
          "epsilon": 0.001,
          "center": true,
          "scale": true,
          "beta_initializer": { "class_name": "Zeros", "config": {} },
          "gamma_initializer": { "class_name": "Ones", "config": {} },
          "moving_mean_initializer": { "class_name": "Zeros", "config": {} },
          "moving_variance_initializer": { "class_name": "Ones", "config": {} },
          "beta_regularizer": null,
          "gamma_regularizer": null,
          "beta_constraint": null,
          "gamma_constraint": null
        },
        "name": "bnorm_96",
        "inbound_nodes": [[["conv_96", 0, 0, {}]]]
      },
      {
        "class_name": "LeakyReLU",
        "config": {
          "name": "leaky_96",
          "trainable": true,
          "dtype": "float32",
          "alpha": 0.10000000149011612
        },
        "name": "leaky_96",
        "inbound_nodes": [[["bnorm_96", 0, 0, {}]]]
      },
      {
        "class_name": "UpSampling2D",
        "config": {
          "name": "up_sampling2d_1",
          "trainable": true,
          "dtype": "float32",
          "size": [2, 2],
          "data_format": "channels_last",
          "interpolation": "nearest"
        },
        "name": "up_sampling2d_1",
        "inbound_nodes": [[["leaky_96", 0, 0, {}]]]
      },
      {
        "class_name": "TFOpLambda",
        "config": {
          "name": "tf.concat_4",
          "trainable": true,
          "dtype": "float32",
          "function": "concat"
        },
        "name": "tf.concat_4",
        "inbound_nodes": [
          [
            ["up_sampling2d_1", 0, 0, { "axis": -1 }],
            ["tf.__operators__.add_10", 0, 0, { "axis": -1 }]
          ]
        ]
      },
      {
        "class_name": "Conv2D",
        "config": {
          "name": "conv_99",
          "trainable": true,
          "dtype": "float32",
          "filters": 128,
          "kernel_size": [1, 1],
          "strides": [1, 1],
          "padding": "same",
          "data_format": "channels_last",
          "dilation_rate": [1, 1],
          "groups": 1,
          "activation": "linear",
          "use_bias": false,
          "kernel_initializer": {
            "class_name": "GlorotUniform",
            "config": { "seed": null }
          },
          "bias_initializer": { "class_name": "Zeros", "config": {} },
          "kernel_regularizer": null,
          "bias_regularizer": null,
          "activity_regularizer": null,
          "kernel_constraint": null,
          "bias_constraint": null
        },
        "name": "conv_99",
        "inbound_nodes": [[["tf.concat_4", 0, 0, {}]]]
      },
      {
        "class_name": "BatchNormalization",
        "config": {
          "name": "bnorm_99",
          "trainable": true,
          "dtype": "float32",
          "axis": [3],
          "momentum": 0.99,
          "epsilon": 0.001,
          "center": true,
          "scale": true,
          "beta_initializer": { "class_name": "Zeros", "config": {} },
          "gamma_initializer": { "class_name": "Ones", "config": {} },
          "moving_mean_initializer": { "class_name": "Zeros", "config": {} },
          "moving_variance_initializer": { "class_name": "Ones", "config": {} },
          "beta_regularizer": null,
          "gamma_regularizer": null,
          "beta_constraint": null,
          "gamma_constraint": null
        },
        "name": "bnorm_99",
        "inbound_nodes": [[["conv_99", 0, 0, {}]]]
      },
      {
        "class_name": "LeakyReLU",
        "config": {
          "name": "leaky_99",
          "trainable": true,
          "dtype": "float32",
          "alpha": 0.10000000149011612
        },
        "name": "leaky_99",
        "inbound_nodes": [[["bnorm_99", 0, 0, {}]]]
      },
      {
        "class_name": "Conv2D",
        "config": {
          "name": "conv_100",
          "trainable": true,
          "dtype": "float32",
          "filters": 256,
          "kernel_size": [3, 3],
          "strides": [1, 1],
          "padding": "same",
          "data_format": "channels_last",
          "dilation_rate": [1, 1],
          "groups": 1,
          "activation": "linear",
          "use_bias": false,
          "kernel_initializer": {
            "class_name": "GlorotUniform",
            "config": { "seed": null }
          },
          "bias_initializer": { "class_name": "Zeros", "config": {} },
          "kernel_regularizer": null,
          "bias_regularizer": null,
          "activity_regularizer": null,
          "kernel_constraint": null,
          "bias_constraint": null
        },
        "name": "conv_100",
        "inbound_nodes": [[["leaky_99", 0, 0, {}]]]
      },
      {
        "class_name": "BatchNormalization",
        "config": {
          "name": "bnorm_100",
          "trainable": true,
          "dtype": "float32",
          "axis": [3],
          "momentum": 0.99,
          "epsilon": 0.001,
          "center": true,
          "scale": true,
          "beta_initializer": { "class_name": "Zeros", "config": {} },
          "gamma_initializer": { "class_name": "Ones", "config": {} },
          "moving_mean_initializer": { "class_name": "Zeros", "config": {} },
          "moving_variance_initializer": { "class_name": "Ones", "config": {} },
          "beta_regularizer": null,
          "gamma_regularizer": null,
          "beta_constraint": null,
          "gamma_constraint": null
        },
        "name": "bnorm_100",
        "inbound_nodes": [[["conv_100", 0, 0, {}]]]
      },
      {
        "class_name": "LeakyReLU",
        "config": {
          "name": "leaky_100",
          "trainable": true,
          "dtype": "float32",
          "alpha": 0.10000000149011612
        },
        "name": "leaky_100",
        "inbound_nodes": [[["bnorm_100", 0, 0, {}]]]
      },
      {
        "class_name": "Conv2D",
        "config": {
          "name": "conv_101",
          "trainable": true,
          "dtype": "float32",
          "filters": 128,
          "kernel_size": [1, 1],
          "strides": [1, 1],
          "padding": "same",
          "data_format": "channels_last",
          "dilation_rate": [1, 1],
          "groups": 1,
          "activation": "linear",
          "use_bias": false,
          "kernel_initializer": {
            "class_name": "GlorotUniform",
            "config": { "seed": null }
          },
          "bias_initializer": { "class_name": "Zeros", "config": {} },
          "kernel_regularizer": null,
          "bias_regularizer": null,
          "activity_regularizer": null,
          "kernel_constraint": null,
          "bias_constraint": null
        },
        "name": "conv_101",
        "inbound_nodes": [[["leaky_100", 0, 0, {}]]]
      },
      {
        "class_name": "BatchNormalization",
        "config": {
          "name": "bnorm_101",
          "trainable": true,
          "dtype": "float32",
          "axis": [3],
          "momentum": 0.99,
          "epsilon": 0.001,
          "center": true,
          "scale": true,
          "beta_initializer": { "class_name": "Zeros", "config": {} },
          "gamma_initializer": { "class_name": "Ones", "config": {} },
          "moving_mean_initializer": { "class_name": "Zeros", "config": {} },
          "moving_variance_initializer": { "class_name": "Ones", "config": {} },
          "beta_regularizer": null,
          "gamma_regularizer": null,
          "beta_constraint": null,
          "gamma_constraint": null
        },
        "name": "bnorm_101",
        "inbound_nodes": [[["conv_101", 0, 0, {}]]]
      },
      {
        "class_name": "LeakyReLU",
        "config": {
          "name": "leaky_101",
          "trainable": true,
          "dtype": "float32",
          "alpha": 0.10000000149011612
        },
        "name": "leaky_101",
        "inbound_nodes": [[["bnorm_101", 0, 0, {}]]]
      },
      {
        "class_name": "Conv2D",
        "config": {
          "name": "conv_102",
          "trainable": true,
          "dtype": "float32",
          "filters": 256,
          "kernel_size": [3, 3],
          "strides": [1, 1],
          "padding": "same",
          "data_format": "channels_last",
          "dilation_rate": [1, 1],
          "groups": 1,
          "activation": "linear",
          "use_bias": false,
          "kernel_initializer": {
            "class_name": "GlorotUniform",
            "config": { "seed": null }
          },
          "bias_initializer": { "class_name": "Zeros", "config": {} },
          "kernel_regularizer": null,
          "bias_regularizer": null,
          "activity_regularizer": null,
          "kernel_constraint": null,
          "bias_constraint": null
        },
        "name": "conv_102",
        "inbound_nodes": [[["leaky_101", 0, 0, {}]]]
      },
      {
        "class_name": "BatchNormalization",
        "config": {
          "name": "bnorm_102",
          "trainable": true,
          "dtype": "float32",
          "axis": [3],
          "momentum": 0.99,
          "epsilon": 0.001,
          "center": true,
          "scale": true,
          "beta_initializer": { "class_name": "Zeros", "config": {} },
          "gamma_initializer": { "class_name": "Ones", "config": {} },
          "moving_mean_initializer": { "class_name": "Zeros", "config": {} },
          "moving_variance_initializer": { "class_name": "Ones", "config": {} },
          "beta_regularizer": null,
          "gamma_regularizer": null,
          "beta_constraint": null,
          "gamma_constraint": null
        },
        "name": "bnorm_102",
        "inbound_nodes": [[["conv_102", 0, 0, {}]]]
      },
      {
        "class_name": "LeakyReLU",
        "config": {
          "name": "leaky_102",
          "trainable": true,
          "dtype": "float32",
          "alpha": 0.10000000149011612
        },
        "name": "leaky_102",
        "inbound_nodes": [[["bnorm_102", 0, 0, {}]]]
      },
      {
        "class_name": "Conv2D",
        "config": {
          "name": "conv_103",
          "trainable": true,
          "dtype": "float32",
          "filters": 128,
          "kernel_size": [1, 1],
          "strides": [1, 1],
          "padding": "same",
          "data_format": "channels_last",
          "dilation_rate": [1, 1],
          "groups": 1,
          "activation": "linear",
          "use_bias": false,
          "kernel_initializer": {
            "class_name": "GlorotUniform",
            "config": { "seed": null }
          },
          "bias_initializer": { "class_name": "Zeros", "config": {} },
          "kernel_regularizer": null,
          "bias_regularizer": null,
          "activity_regularizer": null,
          "kernel_constraint": null,
          "bias_constraint": null
        },
        "name": "conv_103",
        "inbound_nodes": [[["leaky_102", 0, 0, {}]]]
      },
      {
        "class_name": "BatchNormalization",
        "config": {
          "name": "bnorm_103",
          "trainable": true,
          "dtype": "float32",
          "axis": [3],
          "momentum": 0.99,
          "epsilon": 0.001,
          "center": true,
          "scale": true,
          "beta_initializer": { "class_name": "Zeros", "config": {} },
          "gamma_initializer": { "class_name": "Ones", "config": {} },
          "moving_mean_initializer": { "class_name": "Zeros", "config": {} },
          "moving_variance_initializer": { "class_name": "Ones", "config": {} },
          "beta_regularizer": null,
          "gamma_regularizer": null,
          "beta_constraint": null,
          "gamma_constraint": null
        },
        "name": "bnorm_103",
        "inbound_nodes": [[["conv_103", 0, 0, {}]]]
      },
      {
        "class_name": "Conv2D",
        "config": {
          "name": "conv_80",
          "trainable": true,
          "dtype": "float32",
          "filters": 1024,
          "kernel_size": [3, 3],
          "strides": [1, 1],
          "padding": "same",
          "data_format": "channels_last",
          "dilation_rate": [1, 1],
          "groups": 1,
          "activation": "linear",
          "use_bias": false,
          "kernel_initializer": {
            "class_name": "GlorotUniform",
            "config": { "seed": null }
          },
          "bias_initializer": { "class_name": "Zeros", "config": {} },
          "kernel_regularizer": null,
          "bias_regularizer": null,
          "activity_regularizer": null,
          "kernel_constraint": null,
          "bias_constraint": null
        },
        "name": "conv_80",
        "inbound_nodes": [[["leaky_79", 0, 0, {}]]]
      },
      {
        "class_name": "Conv2D",
        "config": {
          "name": "conv_92",
          "trainable": true,
          "dtype": "float32",
          "filters": 512,
          "kernel_size": [3, 3],
          "strides": [1, 1],
          "padding": "same",
          "data_format": "channels_last",
          "dilation_rate": [1, 1],
          "groups": 1,
          "activation": "linear",
          "use_bias": false,
          "kernel_initializer": {
            "class_name": "GlorotUniform",
            "config": { "seed": null }
          },
          "bias_initializer": { "class_name": "Zeros", "config": {} },
          "kernel_regularizer": null,
          "bias_regularizer": null,
          "activity_regularizer": null,
          "kernel_constraint": null,
          "bias_constraint": null
        },
        "name": "conv_92",
        "inbound_nodes": [[["leaky_91", 0, 0, {}]]]
      },
      {
        "class_name": "LeakyReLU",
        "config": {
          "name": "leaky_103",
          "trainable": true,
          "dtype": "float32",
          "alpha": 0.10000000149011612
        },
        "name": "leaky_103",
        "inbound_nodes": [[["bnorm_103", 0, 0, {}]]]
      },
      {
        "class_name": "BatchNormalization",
        "config": {
          "name": "bnorm_80",
          "trainable": true,
          "dtype": "float32",
          "axis": [3],
          "momentum": 0.99,
          "epsilon": 0.001,
          "center": true,
          "scale": true,
          "beta_initializer": { "class_name": "Zeros", "config": {} },
          "gamma_initializer": { "class_name": "Ones", "config": {} },
          "moving_mean_initializer": { "class_name": "Zeros", "config": {} },
          "moving_variance_initializer": { "class_name": "Ones", "config": {} },
          "beta_regularizer": null,
          "gamma_regularizer": null,
          "beta_constraint": null,
          "gamma_constraint": null
        },
        "name": "bnorm_80",
        "inbound_nodes": [[["conv_80", 0, 0, {}]]]
      },
      {
        "class_name": "BatchNormalization",
        "config": {
          "name": "bnorm_92",
          "trainable": true,
          "dtype": "float32",
          "axis": [3],
          "momentum": 0.99,
          "epsilon": 0.001,
          "center": true,
          "scale": true,
          "beta_initializer": { "class_name": "Zeros", "config": {} },
          "gamma_initializer": { "class_name": "Ones", "config": {} },
          "moving_mean_initializer": { "class_name": "Zeros", "config": {} },
          "moving_variance_initializer": { "class_name": "Ones", "config": {} },
          "beta_regularizer": null,
          "gamma_regularizer": null,
          "beta_constraint": null,
          "gamma_constraint": null
        },
        "name": "bnorm_92",
        "inbound_nodes": [[["conv_92", 0, 0, {}]]]
      },
      {
        "class_name": "Conv2D",
        "config": {
          "name": "conv_104",
          "trainable": true,
          "dtype": "float32",
          "filters": 256,
          "kernel_size": [3, 3],
          "strides": [1, 1],
          "padding": "same",
          "data_format": "channels_last",
          "dilation_rate": [1, 1],
          "groups": 1,
          "activation": "linear",
          "use_bias": false,
          "kernel_initializer": {
            "class_name": "GlorotUniform",
            "config": { "seed": null }
          },
          "bias_initializer": { "class_name": "Zeros", "config": {} },
          "kernel_regularizer": null,
          "bias_regularizer": null,
          "activity_regularizer": null,
          "kernel_constraint": null,
          "bias_constraint": null
        },
        "name": "conv_104",
        "inbound_nodes": [[["leaky_103", 0, 0, {}]]]
      },
      {
        "class_name": "LeakyReLU",
        "config": {
          "name": "leaky_80",
          "trainable": true,
          "dtype": "float32",
          "alpha": 0.10000000149011612
        },
        "name": "leaky_80",
        "inbound_nodes": [[["bnorm_80", 0, 0, {}]]]
      },
      {
        "class_name": "LeakyReLU",
        "config": {
          "name": "leaky_92",
          "trainable": true,
          "dtype": "float32",
          "alpha": 0.10000000149011612
        },
        "name": "leaky_92",
        "inbound_nodes": [[["bnorm_92", 0, 0, {}]]]
      },
      {
        "class_name": "BatchNormalization",
        "config": {
          "name": "bnorm_104",
          "trainable": true,
          "dtype": "float32",
          "axis": [3],
          "momentum": 0.99,
          "epsilon": 0.001,
          "center": true,
          "scale": true,
          "beta_initializer": { "class_name": "Zeros", "config": {} },
          "gamma_initializer": { "class_name": "Ones", "config": {} },
          "moving_mean_initializer": { "class_name": "Zeros", "config": {} },
          "moving_variance_initializer": { "class_name": "Ones", "config": {} },
          "beta_regularizer": null,
          "gamma_regularizer": null,
          "beta_constraint": null,
          "gamma_constraint": null
        },
        "name": "bnorm_104",
        "inbound_nodes": [[["conv_104", 0, 0, {}]]]
      },
      {
        "class_name": "Conv2D",
        "config": {
          "name": "conv_81",
          "trainable": true,
          "dtype": "float32",
          "filters": 21,
          "kernel_size": [1, 1],
          "strides": [1, 1],
          "padding": "same",
          "data_format": "channels_last",
          "dilation_rate": [1, 1],
          "groups": 1,
          "activation": "linear",
          "use_bias": true,
          "kernel_initializer": {
            "class_name": "GlorotUniform",
            "config": { "seed": null }
          },
          "bias_initializer": { "class_name": "Zeros", "config": {} },
          "kernel_regularizer": null,
          "bias_regularizer": null,
          "activity_regularizer": null,
          "kernel_constraint": null,
          "bias_constraint": null
        },
        "name": "conv_81",
        "inbound_nodes": [[["leaky_80", 0, 0, {}]]]
      },
      {
        "class_name": "Conv2D",
        "config": {
          "name": "conv_93",
          "trainable": true,
          "dtype": "float32",
          "filters": 21,
          "kernel_size": [1, 1],
          "strides": [1, 1],
          "padding": "same",
          "data_format": "channels_last",
          "dilation_rate": [1, 1],
          "groups": 1,
          "activation": "linear",
          "use_bias": true,
          "kernel_initializer": {
            "class_name": "GlorotUniform",
            "config": { "seed": null }
          },
          "bias_initializer": { "class_name": "Zeros", "config": {} },
          "kernel_regularizer": null,
          "bias_regularizer": null,
          "activity_regularizer": null,
          "kernel_constraint": null,
          "bias_constraint": null
        },
        "name": "conv_93",
        "inbound_nodes": [[["leaky_92", 0, 0, {}]]]
      },
      {
        "class_name": "LeakyReLU",
        "config": {
          "name": "leaky_104",
          "trainable": true,
          "dtype": "float32",
          "alpha": 0.10000000149011612
        },
        "name": "leaky_104",
        "inbound_nodes": [[["bnorm_104", 0, 0, {}]]]
      },
      {
        "class_name": "TFOpLambda",
        "config": {
          "name": "tf.reshape",
          "trainable": true,
          "dtype": "float32",
          "function": "reshape"
        },
        "name": "tf.reshape",
        "inbound_nodes": [["conv_81", 0, 0, { "shape": [-1, 507, 7] }]]
      },
      {
        "class_name": "TFOpLambda",
        "config": {
          "name": "tf.reshape_1",
          "trainable": true,
          "dtype": "float32",
          "function": "reshape"
        },
        "name": "tf.reshape_1",
        "inbound_nodes": [["conv_93", 0, 0, { "shape": [-1, 2028, 7] }]]
      },
      {
        "class_name": "Conv2D",
        "config": {
          "name": "conv_105",
          "trainable": true,
          "dtype": "float32",
          "filters": 21,
          "kernel_size": [1, 1],
          "strides": [1, 1],
          "padding": "same",
          "data_format": "channels_last",
          "dilation_rate": [1, 1],
          "groups": 1,
          "activation": "linear",
          "use_bias": true,
          "kernel_initializer": {
            "class_name": "GlorotUniform",
            "config": { "seed": null }
          },
          "bias_initializer": { "class_name": "Zeros", "config": {} },
          "kernel_regularizer": null,
          "bias_regularizer": null,
          "activity_regularizer": null,
          "kernel_constraint": null,
          "bias_constraint": null
        },
        "name": "conv_105",
        "inbound_nodes": [[["leaky_104", 0, 0, {}]]]
      },
      {
        "class_name": "SlicingOpLambda",
        "config": {
          "name": "tf.__operators__.getitem",
          "trainable": true,
          "dtype": "float32",
          "function": "__operators__.getitem"
        },
        "name": "tf.__operators__.getitem",
        "inbound_nodes": [
          [
            "tf.reshape",
            0,
            0,
            {
              "slice_spec": [
                { "start": null, "stop": null, "step": null },
                { "start": null, "stop": null, "step": null },
                { "start": 0, "stop": 2, "step": null }
              ]
            }
          ]
        ]
      },
      {
        "class_name": "SlicingOpLambda",
        "config": {
          "name": "tf.__operators__.getitem_4",
          "trainable": true,
          "dtype": "float32",
          "function": "__operators__.getitem"
        },
        "name": "tf.__operators__.getitem_4",
        "inbound_nodes": [
          [
            "tf.reshape_1",
            0,
            0,
            {
              "slice_spec": [
                { "start": null, "stop": null, "step": null },
                { "start": null, "stop": null, "step": null },
                { "start": 0, "stop": 2, "step": null }
              ]
            }
          ]
        ]
      },
      {
        "class_name": "TFOpLambda",
        "config": {
          "name": "tf.reshape_2",
          "trainable": true,
          "dtype": "float32",
          "function": "reshape"
        },
        "name": "tf.reshape_2",
        "inbound_nodes": [["conv_105", 0, 0, { "shape": [-1, 8112, 7] }]]
      },
      {
        "class_name": "TFOpLambda",
        "config": {
          "name": "tf.math.sigmoid",
          "trainable": true,
          "dtype": "float32",
          "function": "math.sigmoid"
        },
        "name": "tf.math.sigmoid",
        "inbound_nodes": [["tf.__operators__.getitem", 0, 0, {}]]
      },
      {
        "class_name": "SlicingOpLambda",
        "config": {
          "name": "tf.__operators__.getitem_1",
          "trainable": true,
          "dtype": "float32",
          "function": "__operators__.getitem"
        },
        "name": "tf.__operators__.getitem_1",
        "inbound_nodes": [
          [
            "tf.reshape",
            0,
            0,
            {
              "slice_spec": [
                { "start": null, "stop": null, "step": null },
                { "start": null, "stop": null, "step": null },
                { "start": 2, "stop": 4, "step": null }
              ]
            }
          ]
        ]
      },
      {
        "class_name": "TFOpLambda",
        "config": {
          "name": "tf.math.sigmoid_3",
          "trainable": true,
          "dtype": "float32",
          "function": "math.sigmoid"
        },
        "name": "tf.math.sigmoid_3",
        "inbound_nodes": [["tf.__operators__.getitem_4", 0, 0, {}]]
      },
      {
        "class_name": "SlicingOpLambda",
        "config": {
          "name": "tf.__operators__.getitem_5",
          "trainable": true,
          "dtype": "float32",
          "function": "__operators__.getitem"
        },
        "name": "tf.__operators__.getitem_5",
        "inbound_nodes": [
          [
            "tf.reshape_1",
            0,
            0,
            {
              "slice_spec": [
                { "start": null, "stop": null, "step": null },
                { "start": null, "stop": null, "step": null },
                { "start": 2, "stop": 4, "step": null }
              ]
            }
          ]
        ]
      },
      {
        "class_name": "SlicingOpLambda",
        "config": {
          "name": "tf.__operators__.getitem_8",
          "trainable": true,
          "dtype": "float32",
          "function": "__operators__.getitem"
        },
        "name": "tf.__operators__.getitem_8",
        "inbound_nodes": [
          [
            "tf.reshape_2",
            0,
            0,
            {
              "slice_spec": [
                { "start": null, "stop": null, "step": null },
                { "start": null, "stop": null, "step": null },
                { "start": 0, "stop": 2, "step": null }
              ]
            }
          ]
        ]
      },
      {
        "class_name": "TFOpLambda",
        "config": {
          "name": "tf.__operators__.add_23",
          "trainable": true,
          "dtype": "float32",
          "function": "__operators__.add"
        },
        "name": "tf.__operators__.add_23",
        "inbound_nodes": [
          [
            "tf.math.sigmoid",
            0,
            0,
            {
              "y": [
                [
                  [… "name": null
            }
          ]
        ]
      },
      {
        "class_name": "TFOpLambda",
        "config": {
          "name": "tf.math.exp",
          "trainable": true,
          "dtype": "float32",
          "function": "math.exp"
        },
        "name": "tf.math.exp",
        "inbound_nodes": [["tf.__operators__.getitem_1", 0, 0, {}]]
      },
      {
        "class_name": "SlicingOpLambda",
        "config": {
          "name": "tf.__operators__.getitem_2",
          "trainable": true,
          "dtype": "float32",
          "function": "__operators__.getitem"
        },
        "name": "tf.__operators__.getitem_2",
        "inbound_nodes": [
          [
            "tf.reshape",
            0,
            0,
            {
              "slice_spec": [
                { "start": null, "stop": null, "step": null },
                { "start": null, "stop": null, "step": null },
                { "start": 4, "stop": 5, "step": null }
              ]
            }
          ]
        ]
      },
      {
        "class_name": "SlicingOpLambda",
        "config": {
          "name": "tf.__operators__.getitem_3",
          "trainable": true,
          "dtype": "float32",
          "function": "__operators__.getitem"
        },
        "name": "tf.__operators__.getitem_3",
        "inbound_nodes": [
          [
            "tf.reshape",
            0,
            0,
            {
              "slice_spec": [
                { "start": null, "stop": null, "step": null },
                { "start": null, "stop": null, "step": null },
                { "start": 5, "stop": 7, "step": null }
              ]
            }
          ]
        ]
      },
      {
        "class_name": "TFOpLambda",
        "config": {
          "name": "tf.__operators__.add_24",
          "trainable": true,
          "dtype": "float32",
          "function": "__operators__.add"
        },
        "name": "tf.__operators__.add_24",
        "inbound_nodes": [
          [
            "tf.math.sigmoid_3",
            0,
            0,
            {
              "y": [
                [
                  [… "name": null
            }
          ]
        ]
      },
      {
        "class_name": "TFOpLambda",
        "config": {
          "name": "tf.math.exp_1",
          "trainable": true,
          "dtype": "float32",
          "function": "math.exp"
        },
        "name": "tf.math.exp_1",
        "inbound_nodes": [["tf.__operators__.getitem_5", 0, 0, {}]]
      },
      {
        "class_name": "SlicingOpLambda",
        "config": {
          "name": "tf.__operators__.getitem_6",
          "trainable": true,
          "dtype": "float32",
          "function": "__operators__.getitem"
        },
        "name": "tf.__operators__.getitem_6",
        "inbound_nodes": [
          [
            "tf.reshape_1",
            0,
            0,
            {
              "slice_spec": [
                { "start": null, "stop": null, "step": null },
                { "start": null, "stop": null, "step": null },
                { "start": 4, "stop": 5, "step": null }
              ]
            }
          ]
        ]
      },
      {
        "class_name": "SlicingOpLambda",
        "config": {
          "name": "tf.__operators__.getitem_7",
          "trainable": true,
          "dtype": "float32",
          "function": "__operators__.getitem"
        },
        "name": "tf.__operators__.getitem_7",
        "inbound_nodes": [
          [
            "tf.reshape_1",
            0,
            0,
            {
              "slice_spec": [
                { "start": null, "stop": null, "step": null },
                { "start": null, "stop": null, "step": null },
                { "start": 5, "stop": 7, "step": null }
              ]
            }
          ]
        ]
      },
      {
        "class_name": "TFOpLambda",
        "config": {
          "name": "tf.math.sigmoid_6",
          "trainable": true,
          "dtype": "float32",
          "function": "math.sigmoid"
        },
        "name": "tf.math.sigmoid_6",
        "inbound_nodes": [["tf.__operators__.getitem_8", 0, 0, {}]]
      },
      {
        "class_name": "SlicingOpLambda",
        "config": {
          "name": "tf.__operators__.getitem_9",
          "trainable": true,
          "dtype": "float32",
          "function": "__operators__.getitem"
        },
        "name": "tf.__operators__.getitem_9",
        "inbound_nodes": [
          [
            "tf.reshape_2",
            0,
            0,
            {
              "slice_spec": [
                { "start": null, "stop": null, "step": null },
                { "start": null, "stop": null, "step": null },
                { "start": 2, "stop": 4, "step": null }
              ]
            }
          ]
        ]
      },
      {
        "class_name": "TFOpLambda",
        "config": {
          "name": "tf.math.multiply_1",
          "trainable": true,
          "dtype": "float32",
          "function": "math.multiply"
        },
        "name": "tf.math.multiply_1",
        "inbound_nodes": [
          ["tf.__operators__.add_23", 0, 0, { "y": [32, 32], "name": null }]
        ]
      },
      {
        "class_name": "TFOpLambda",
        "config": {
          "name": "tf.math.multiply",
          "trainable": true,
          "dtype": "float32",
          "function": "math.multiply"
        },
        "name": "tf.math.multiply",
        "inbound_nodes": [
          [
            "tf.math.exp",
            0,
            0,
            {
              "y": [
                [… "name": null
            }
          ]
        ]
      },
      {
        "class_name": "TFOpLambda",
        "config": {
          "name": "tf.math.sigmoid_1",
          "trainable": true,
          "dtype": "float32",
          "function": "math.sigmoid"
        },
        "name": "tf.math.sigmoid_1",
        "inbound_nodes": [["tf.__operators__.getitem_2", 0, 0, {}]]
      },
      {
        "class_name": "TFOpLambda",
        "config": {
          "name": "tf.math.sigmoid_2",
          "trainable": true,
          "dtype": "float32",
          "function": "math.sigmoid"
        },
        "name": "tf.math.sigmoid_2",
        "inbound_nodes": [["tf.__operators__.getitem_3", 0, 0, {}]]
      },
      {
        "class_name": "TFOpLambda",
        "config": {
          "name": "tf.math.multiply_3",
          "trainable": true,
          "dtype": "float32",
          "function": "math.multiply"
        },
        "name": "tf.math.multiply_3",
        "inbound_nodes": [
          ["tf.__operators__.add_24", 0, 0, { "y": [16, 16], "name": null }]
        ]
      },
      {
        "class_name": "TFOpLambda",
        "config": {
          "name": "tf.math.multiply_2",
          "trainable": true,
          "dtype": "float32",
          "function": "math.multiply"
        },
        "name": "tf.math.multiply_2",
        "inbound_nodes": [
          [
            "tf.math.exp_1",
            0,
            0,
            {
              "y": [
                [… "name": null
            }
          ]
        ]
      },
      {
        "class_name": "TFOpLambda",
        "config": {
          "name": "tf.math.sigmoid_4",
          "trainable": true,
          "dtype": "float32",
          "function": "math.sigmoid"
        },
        "name": "tf.math.sigmoid_4",
        "inbound_nodes": [["tf.__operators__.getitem_6", 0, 0, {}]]
      },
      {
        "class_name": "TFOpLambda",
        "config": {
          "name": "tf.math.sigmoid_5",
          "trainable": true,
          "dtype": "float32",
          "function": "math.sigmoid"
        },
        "name": "tf.math.sigmoid_5",
        "inbound_nodes": [["tf.__operators__.getitem_7", 0, 0, {}]]
      },
      {
        "class_name": "TFOpLambda",
        "config": {
          "name": "tf.__operators__.add_25",
          "trainable": true,
          "dtype": "float32",
          "function": "__operators__.add"
        },
        "name": "tf.__operators__.add_25",
        "inbound_nodes": [
          [
            "tf.math.sigmoid_6",
            0,
            0,
            {
              "y": [
                [
                  [… "name": null
            }
          ]
        ]
      },
      {
        "class_name": "TFOpLambda",
        "config": {
          "name": "tf.math.exp_2",
          "trainable": true,
          "dtype": "float32",
          "function": "math.exp"
        },
        "name": "tf.math.exp_2",
        "inbound_nodes": [["tf.__operators__.getitem_9", 0, 0, {}]]
      },
      {
        "class_name": "SlicingOpLambda",
        "config": {
          "name": "tf.__operators__.getitem_10",
          "trainable": true,
          "dtype": "float32",
          "function": "__operators__.getitem"
        },
        "name": "tf.__operators__.getitem_10",
        "inbound_nodes": [
          [
            "tf.reshape_2",
            0,
            0,
            {
              "slice_spec": [
                { "start": null, "stop": null, "step": null },
                { "start": null, "stop": null, "step": null },
                { "start": 4, "stop": 5, "step": null }
              ]
            }
          ]
        ]
      },
      {
        "class_name": "SlicingOpLambda",
        "config": {
          "name": "tf.__operators__.getitem_11",
          "trainable": true,
          "dtype": "float32",
          "function": "__operators__.getitem"
        },
        "name": "tf.__operators__.getitem_11",
        "inbound_nodes": [
          [
            "tf.reshape_2",
            0,
            0,
            {
              "slice_spec": [
                { "start": null, "stop": null, "step": null },
                { "start": null, "stop": null, "step": null },
                { "start": 5, "stop": 7, "step": null }
              ]
            }
          ]
        ]
      },
      {
        "class_name": "TFOpLambda",
        "config": {
          "name": "tf.concat",
          "trainable": true,
          "dtype": "float32",
          "function": "concat"
        },
        "name": "tf.concat",
        "inbound_nodes": [
          [
            ["tf.math.multiply_1", 0, 0, { "axis": -1 }],
            ["tf.math.multiply", 0, 0, { "axis": -1 }],
            ["tf.math.sigmoid_1", 0, 0, { "axis": -1 }],
            ["tf.math.sigmoid_2", 0, 0, { "axis": -1 }]
          ]
        ]
      },
      {
        "class_name": "TFOpLambda",
        "config": {
          "name": "tf.concat_2",
          "trainable": true,
          "dtype": "float32",
          "function": "concat"
        },
        "name": "tf.concat_2",
        "inbound_nodes": [
          [
            ["tf.math.multiply_3", 0, 0, { "axis": -1 }],
            ["tf.math.multiply_2", 0, 0, { "axis": -1 }],
            ["tf.math.sigmoid_4", 0, 0, { "axis": -1 }],
            ["tf.math.sigmoid_5", 0, 0, { "axis": -1 }]
          ]
        ]
      },
      {
        "class_name": "TFOpLambda",
        "config": {
          "name": "tf.math.multiply_5",
          "trainable": true,
          "dtype": "float32",
          "function": "math.multiply"
        },
        "name": "tf.math.multiply_5",
        "inbound_nodes": [
          ["tf.__operators__.add_25", 0, 0, { "y": [8, 8], "name": null }]
        ]
      },
      {
        "class_name": "TFOpLambda",
        "config": {
          "name": "tf.math.multiply_4",
          "trainable": true,
          "dtype": "float32",
          "function": "math.multiply"
        },
        "name": "tf.math.multiply_4",
        "inbound_nodes": [
          [
            "tf.math.exp_2",
            0,
            0,
            {
              "y": [
                [… "name": null
            }
          ]
        ]
      },
      {
        "class_name": "TFOpLambda",
        "config": {
          "name": "tf.math.sigmoid_7",
          "trainable": true,
          "dtype": "float32",
          "function": "math.sigmoid"
        },
        "name": "tf.math.sigmoid_7",
        "inbound_nodes": [["tf.__operators__.getitem_10", 0, 0, {}]]
      },
      {
        "class_name": "TFOpLambda",
        "config": {
          "name": "tf.math.sigmoid_8",
          "trainable": true,
          "dtype": "float32",
          "function": "math.sigmoid"
        },
        "name": "tf.math.sigmoid_8",
        "inbound_nodes": [["tf.__operators__.getitem_11", 0, 0, {}]]
      },
      {
        "class_name": "TFOpLambda",
        "config": {
          "name": "tf.concat_3",
          "trainable": true,
          "dtype": "float32",
          "function": "concat"
        },
        "name": "tf.concat_3",
        "inbound_nodes": [
          [
            ["tf.concat", 0, 0, { "axis": 1 }],
            ["tf.concat_2", 0, 0, { "axis": 1 }]
          ]
        ]
      },
      {
        "class_name": "TFOpLambda",
        "config": {
          "name": "tf.concat_5",
          "trainable": true,
          "dtype": "float32",
          "function": "concat"
        },
        "name": "tf.concat_5",
        "inbound_nodes": [
          [
            ["tf.math.multiply_5", 0, 0, { "axis": -1 }],
            ["tf.math.multiply_4", 0, 0, { "axis": -1 }],
            ["tf.math.sigmoid_7", 0, 0, { "axis": -1 }],
            ["tf.math.sigmoid_8", 0, 0, { "axis": -1 }]
          ]
        ]
      },
      {
        "class_name": "TFOpLambda",
        "config": {
          "name": "tf.concat_6",
          "trainable": true,
          "dtype": "float32",
          "function": "concat"
        },
        "name": "tf.concat_6",
        "inbound_nodes": [
          [
            ["tf.concat_3", 0, 0, { "axis": 1 }],
            ["tf.concat_5", 0, 0, { "axis": 1 }]
          ]
        ]
      }
    ],
    "input_layers": [["input_1", 0, 0]],
    "output_layers": [["tf.concat_6", 0, 0]]
  },
  "keras_version": "2.4.0",
  "backend": "tensorflow"
}
